"builtin.module"() ({
  "func.func"() <{function_type = (tensor<1x10xf32>) -> tensor<1x5xf32>, sym_name = "fc_relu"}> ({
  ^bb0(%arg0: tensor<1x10xf32>):
    %0 = "tosa.const"() {value = dense<[[… > : tensor<10x5xf32>} : () -> tensor<10x5xf32>
    %1 = "tosa.const"() {value = dense<[-0.776163697, -1.04406238, 0.801445723, -0.201356843, -0.0151059236]> : tensor<5xf32>} : () -> tensor<5xf32>
    %2 = "tosa.const"() {value = dense<0.000000e+00> : tensor<1x5xf32>} : () -> tensor<1x5xf32>
    %3 = "tosa.reshape"(%1) {new_shape = dense<[1, 5]> : tensor<2xi64>} : (tensor<5xf32>) -> tensor<1x5xf32>
    %4 = "tosa.matmul"(%arg0, %0) : (tensor<1x10xf32>, tensor<10x5xf32>) -> tensor<1x5xf32>
    %5 = "tosa.add"(%4, %3) : (tensor<1x5xf32>, tensor<1x5xf32>) -> tensor<1x5xf32>
    %6 = "tosa.maximum"(%5, %2) <{nan_mode = "PROPAGATE"}> : (tensor<1x5xf32>, tensor<1x5xf32>) -> tensor<1x5xf32>
    "func.return"(%6) : (tensor<1x5xf32>) -> ()
  }) : () -> ()
}) : () -> ()
