module {
  func.func @main(%arg0: !torch.vtensor<[1,3,224,224],f32>, %arg1: !torch.vtensor<[32,3,3,3],f32>, %arg2: !torch.vtensor<[32],f32>, %arg3: !torch.vtensor<[32],f32>, %arg4: !torch.vtensor<[32],f32>, %arg5: !torch.vtensor<[32],f32>, %arg6: !torch.vtensor<[32,1,3,3],f32>, %arg7: !torch.vtensor<[32],f32>, %arg8: !torch.vtensor<[32],f32>, %arg9: !torch.vtensor<[32],f32>, %arg10: !torch.vtensor<[32],f32>, %arg11: !torch.vtensor<[16,32,1,1],f32>, %arg12: !torch.vtensor<[16],f32>, %arg13: !torch.vtensor<[16],f32>, %arg14: !torch.vtensor<[16],f32>, %arg15: !torch.vtensor<[16],f32>, %arg16: !torch.vtensor<[96,16,1,1],f32>, %arg17: !torch.vtensor<[96],f32>, %arg18: !torch.vtensor<[96],f32>, %arg19: !torch.vtensor<[96],f32>, %arg20: !torch.vtensor<[96],f32>, %arg21: !torch.vtensor<[96,1,3,3],f32>, %arg22: !torch.vtensor<[96],f32>, %arg23: !torch.vtensor<[96],f32>, %arg24: !torch.vtensor<[96],f32>, %arg25: !torch.vtensor<[96],f32>, %arg26: !torch.vtensor<[24,96,1,1],f32>, %arg27: !torch.vtensor<[24],f32>, %arg28: !torch.vtensor<[24],f32>, %arg29: !torch.vtensor<[24],f32>, %arg30: !torch.vtensor<[24],f32>, %arg31: !torch.vtensor<[144,24,1,1],f32>, %arg32: !torch.vtensor<[144],f32>, %arg33: !torch.vtensor<[144],f32>, %arg34: !torch.vtensor<[144],f32>, %arg35: !torch.vtensor<[144],f32>, %arg36: !torch.vtensor<[144,1,3,3],f32>, %arg37: !torch.vtensor<[144],f32>, %arg38: !torch.vtensor<[144],f32>, %arg39: !torch.vtensor<[144],f32>, %arg40: !torch.vtensor<[144],f32>, %arg41: !torch.vtensor<[24,144,1,1],f32>, %arg42: !torch.vtensor<[24],f32>, %arg43: !torch.vtensor<[24],f32>, %arg44: !torch.vtensor<[24],f32>, %arg45: !torch.vtensor<[24],f32>, %arg46: !torch.vtensor<[144,24,1,1],f32>, %arg47: !torch.vtensor<[144],f32>, %arg48: !torch.vtensor<[144],f32>, %arg49: !torch.vtensor<[144],f32>, %arg50: !torch.vtensor<[144],f32>, %arg51: !torch.vtensor<[144,1,3,3],f32>, %arg52: !torch.vtensor<[144],f32>, %arg53: !torch.vtensor<[144],f32>, %arg54: !torch.vtensor<[144],f32>, %arg55: !torch.vtensor<[144],f32>, %arg56: !torch.vtensor<[32,144,1,1],f32>, %arg57: !torch.vtensor<[32],f32>, %arg58: !torch.vtensor<[32],f32>, %arg59: !torch.vtensor<[32],f32>, %arg60: !torch.vtensor<[32],f32>, %arg61: !torch.vtensor<[192,32,1,1],f32>, %arg62: !torch.vtensor<[192],f32>, %arg63: !torch.vtensor<[192],f32>, %arg64: !torch.vtensor<[192],f32>, %arg65: !torch.vtensor<[192],f32>, %arg66: !torch.vtensor<[192,1,3,3],f32>, %arg67: !torch.vtensor<[192],f32>, %arg68: !torch.vtensor<[192],f32>, %arg69: !torch.vtensor<[192],f32>, %arg70: !torch.vtensor<[192],f32>, %arg71: !torch.vtensor<[32,192,1,1],f32>, %arg72: !torch.vtensor<[32],f32>, %arg73: !torch.vtensor<[32],f32>, %arg74: !torch.vtensor<[32],f32>, %arg75: !torch.vtensor<[32],f32>, %arg76: !torch.vtensor<[192,32,1,1],f32>, %arg77: !torch.vtensor<[192],f32>, %arg78: !torch.vtensor<[192],f32>, %arg79: !torch.vtensor<[192],f32>, %arg80: !torch.vtensor<[192],f32>, %arg81: !torch.vtensor<[192,1,3,3],f32>, %arg82: !torch.vtensor<[192],f32>, %arg83: !torch.vtensor<[192],f32>, %arg84: !torch.vtensor<[192],f32>, %arg85: !torch.vtensor<[192],f32>, %arg86: !torch.vtensor<[32,192,1,1],f32>, %arg87: !torch.vtensor<[32],f32>, %arg88: !torch.vtensor<[32],f32>, %arg89: !torch.vtensor<[32],f32>, %arg90: !torch.vtensor<[32],f32>, %arg91: !torch.vtensor<[192,32,1,1],f32>, %arg92: !torch.vtensor<[192],f32>, %arg93: !torch.vtensor<[192],f32>, %arg94: !torch.vtensor<[192],f32>, %arg95: !torch.vtensor<[192],f32>, %arg96: !torch.vtensor<[192,1,3,3],f32>, %arg97: !torch.vtensor<[192],f32>, %arg98: !torch.vtensor<[192],f32>, %arg99: !torch.vtensor<[192],f32>, %arg100: !torch.vtensor<[192],f32>, %arg101: !torch.vtensor<[64,192,1,1],f32>, %arg102: !torch.vtensor<[64],f32>, %arg103: !torch.vtensor<[64],f32>, %arg104: !torch.vtensor<[64],f32>, %arg105: !torch.vtensor<[64],f32>, %arg106: !torch.vtensor<[384,64,1,1],f32>, %arg107: !torch.vtensor<[384],f32>, %arg108: !torch.vtensor<[384],f32>, %arg109: !torch.vtensor<[384],f32>, %arg110: !torch.vtensor<[384],f32>, %arg111: !torch.vtensor<[384,1,3,3],f32>, %arg112: !torch.vtensor<[384],f32>, %arg113: !torch.vtensor<[384],f32>, %arg114: !torch.vtensor<[384],f32>, %arg115: !torch.vtensor<[384],f32>, %arg116: !torch.vtensor<[64,384,1,1],f32>, %arg117: !torch.vtensor<[64],f32>, %arg118: !torch.vtensor<[64],f32>, %arg119: !torch.vtensor<[64],f32>, %arg120: !torch.vtensor<[64],f32>, %arg121: !torch.vtensor<[384,64,1,1],f32>, %arg122: !torch.vtensor<[384],f32>, %arg123: !torch.vtensor<[384],f32>, %arg124: !torch.vtensor<[384],f32>, %arg125: !torch.vtensor<[384],f32>, %arg126: !torch.vtensor<[384,1,3,3],f32>, %arg127: !torch.vtensor<[384],f32>, %arg128: !torch.vtensor<[384],f32>, %arg129: !torch.vtensor<[384],f32>, %arg130: !torch.vtensor<[384],f32>, %arg131: !torch.vtensor<[64,384,1,1],f32>, %arg132: !torch.vtensor<[64],f32>, %arg133: !torch.vtensor<[64],f32>, %arg134: !torch.vtensor<[64],f32>, %arg135: !torch.vtensor<[64],f32>, %arg136: !torch.vtensor<[384,64,1,1],f32>, %arg137: !torch.vtensor<[384],f32>, %arg138: !torch.vtensor<[384],f32>, %arg139: !torch.vtensor<[384],f32>, %arg140: !torch.vtensor<[384],f32>, %arg141: !torch.vtensor<[384,1,3,3],f32>, %arg142: !torch.vtensor<[384],f32>, %arg143: !torch.vtensor<[384],f32>, %arg144: !torch.vtensor<[384],f32>, %arg145: !torch.vtensor<[384],f32>, %arg146: !torch.vtensor<[64,384,1,1],f32>, %arg147: !torch.vtensor<[64],f32>, %arg148: !torch.vtensor<[64],f32>, %arg149: !torch.vtensor<[64],f32>, %arg150: !torch.vtensor<[64],f32>, %arg151: !torch.vtensor<[384,64,1,1],f32>, %arg152: !torch.vtensor<[384],f32>, %arg153: !torch.vtensor<[384],f32>, %arg154: !torch.vtensor<[384],f32>, %arg155: !torch.vtensor<[384],f32>, %arg156: !torch.vtensor<[384,1,3,3],f32>, %arg157: !torch.vtensor<[384],f32>, %arg158: !torch.vtensor<[384],f32>, %arg159: !torch.vtensor<[384],f32>, %arg160: !torch.vtensor<[384],f32>, %arg161: !torch.vtensor<[96,384,1,1],f32>, %arg162: !torch.vtensor<[96],f32>, %arg163: !torch.vtensor<[96],f32>, %arg164: !torch.vtensor<[96],f32>, %arg165: !torch.vtensor<[96],f32>, %arg166: !torch.vtensor<[576,96,1,1],f32>, %arg167: !torch.vtensor<[576],f32>, %arg168: !torch.vtensor<[576],f32>, %arg169: !torch.vtensor<[576],f32>, %arg170: !torch.vtensor<[576],f32>, %arg171: !torch.vtensor<[576,1,3,3],f32>, %arg172: !torch.vtensor<[576],f32>, %arg173: !torch.vtensor<[576],f32>, %arg174: !torch.vtensor<[576],f32>, %arg175: !torch.vtensor<[576],f32>, %arg176: !torch.vtensor<[96,576,1,1],f32>, %arg177: !torch.vtensor<[96],f32>, %arg178: !torch.vtensor<[96],f32>, %arg179: !torch.vtensor<[96],f32>, %arg180: !torch.vtensor<[96],f32>, %arg181: !torch.vtensor<[576,96,1,1],f32>, %arg182: !torch.vtensor<[576],f32>, %arg183: !torch.vtensor<[576],f32>, %arg184: !torch.vtensor<[576],f32>, %arg185: !torch.vtensor<[576],f32>, %arg186: !torch.vtensor<[576,1,3,3],f32>, %arg187: !torch.vtensor<[576],f32>, %arg188: !torch.vtensor<[576],f32>, %arg189: !torch.vtensor<[576],f32>, %arg190: !torch.vtensor<[576],f32>, %arg191: !torch.vtensor<[96,576,1,1],f32>, %arg192: !torch.vtensor<[96],f32>, %arg193: !torch.vtensor<[96],f32>, %arg194: !torch.vtensor<[96],f32>, %arg195: !torch.vtensor<[96],f32>, %arg196: !torch.vtensor<[576,96,1,1],f32>, %arg197: !torch.vtensor<[576],f32>, %arg198: !torch.vtensor<[576],f32>, %arg199: !torch.vtensor<[576],f32>, %arg200: !torch.vtensor<[576],f32>, %arg201: !torch.vtensor<[576,1,3,3],f32>, %arg202: !torch.vtensor<[576],f32>, %arg203: !torch.vtensor<[576],f32>, %arg204: !torch.vtensor<[576],f32>, %arg205: !torch.vtensor<[576],f32>, %arg206: !torch.vtensor<[160,576,1,1],f32>, %arg207: !torch.vtensor<[160],f32>, %arg208: !torch.vtensor<[160],f32>, %arg209: !torch.vtensor<[160],f32>, %arg210: !torch.vtensor<[160],f32>, %arg211: !torch.vtensor<[960,160,1,1],f32>, %arg212: !torch.vtensor<[960],f32>, %arg213: !torch.vtensor<[960],f32>, %arg214: !torch.vtensor<[960],f32>, %arg215: !torch.vtensor<[960],f32>, %arg216: !torch.vtensor<[960,1,3,3],f32>, %arg217: !torch.vtensor<[960],f32>, %arg218: !torch.vtensor<[960],f32>, %arg219: !torch.vtensor<[960],f32>, %arg220: !torch.vtensor<[960],f32>, %arg221: !torch.vtensor<[160,960,1,1],f32>, %arg222: !torch.vtensor<[160],f32>, %arg223: !torch.vtensor<[160],f32>, %arg224: !torch.vtensor<[160],f32>, %arg225: !torch.vtensor<[160],f32>, %arg226: !torch.vtensor<[960,160,1,1],f32>, %arg227: !torch.vtensor<[960],f32>, %arg228: !torch.vtensor<[960],f32>, %arg229: !torch.vtensor<[960],f32>, %arg230: !torch.vtensor<[960],f32>, %arg231: !torch.vtensor<[960,1,3,3],f32>, %arg232: !torch.vtensor<[960],f32>, %arg233: !torch.vtensor<[960],f32>, %arg234: !torch.vtensor<[960],f32>, %arg235: !torch.vtensor<[960],f32>, %arg236: !torch.vtensor<[160,960,1,1],f32>, %arg237: !torch.vtensor<[160],f32>, %arg238: !torch.vtensor<[160],f32>, %arg239: !torch.vtensor<[160],f32>, %arg240: !torch.vtensor<[160],f32>, %arg241: !torch.vtensor<[960,160,1,1],f32>, %arg242: !torch.vtensor<[960],f32>, %arg243: !torch.vtensor<[960],f32>, %arg244: !torch.vtensor<[960],f32>, %arg245: !torch.vtensor<[960],f32>, %arg246: !torch.vtensor<[960,1,3,3],f32>, %arg247: !torch.vtensor<[960],f32>, %arg248: !torch.vtensor<[960],f32>, %arg249: !torch.vtensor<[960],f32>, %arg250: !torch.vtensor<[960],f32>, %arg251: !torch.vtensor<[320,960,1,1],f32>, %arg252: !torch.vtensor<[320],f32>, %arg253: !torch.vtensor<[320],f32>, %arg254: !torch.vtensor<[320],f32>, %arg255: !torch.vtensor<[320],f32>, %arg256: !torch.vtensor<[1280,320,1,1],f32>, %arg257: !torch.vtensor<[1280],f32>, %arg258: !torch.vtensor<[1280],f32>, %arg259: !torch.vtensor<[1280],f32>, %arg260: !torch.vtensor<[1280],f32>, %arg261: !torch.vtensor<[1001,1280],f32>, %arg262: !torch.vtensor<[1001],f32>) -> (!torch.vtensor<[1,1001],f32>, !torch.vtensor<[32,3,3,3],f32>, !torch.vtensor<[32],f32>, !torch.vtensor<[32],f32>, !torch.vtensor<[32],f32>, !torch.vtensor<[32,1,3,3],f32>, !torch.vtensor<[32],f32>, !torch.vtensor<[32],f32>, !torch.vtensor<[32],f32>, !torch.vtensor<[16,32,1,1],f32>, !torch.vtensor<[16],f32>, !torch.vtensor<[16],f32>, !torch.vtensor<[16],f32>, !torch.vtensor<[96,16,1,1],f32>, !torch.vtensor<[96],f32>, !torch.vtensor<[96],f32>, !torch.vtensor<[96],f32>, !torch.vtensor<[96,1,3,3],f32>, !torch.vtensor<[96],f32>, !torch.vtensor<[96],f32>, !torch.vtensor<[96],f32>, !torch.vtensor<[24,96,1,1],f32>, !torch.vtensor<[24],f32>, !torch.vtensor<[24],f32>, !torch.vtensor<[24],f32>, !torch.vtensor<[144,24,1,1],f32>, !torch.vtensor<[144],f32>, !torch.vtensor<[144],f32>, !torch.vtensor<[144],f32>, !torch.vtensor<[144,1,3,3],f32>, !torch.vtensor<[144],f32>, !torch.vtensor<[144],f32>, !torch.vtensor<[144],f32>, !torch.vtensor<[24,144,1,1],f32>, !torch.vtensor<[24],f32>, !torch.vtensor<[24],f32>, !torch.vtensor<[24],f32>, !torch.vtensor<[144,24,1,1],f32>, !torch.vtensor<[144],f32>, !torch.vtensor<[144],f32>, !torch.vtensor<[144],f32>, !torch.vtensor<[144,1,3,3],f32>, !torch.vtensor<[144],f32>, !torch.vtensor<[144],f32>, !torch.vtensor<[144],f32>, !torch.vtensor<[32,144,1,1],f32>, !torch.vtensor<[32],f32>, !torch.vtensor<[32],f32>, !torch.vtensor<[32],f32>, !torch.vtensor<[192,32,1,1],f32>, !torch.vtensor<[192],f32>, !torch.vtensor<[192],f32>, !torch.vtensor<[192],f32>, !torch.vtensor<[192,1,3,3],f32>, !torch.vtensor<[192],f32>, !torch.vtensor<[192],f32>, !torch.vtensor<[192],f32>, !torch.vtensor<[32,192,1,1],f32>, !torch.vtensor<[32],f32>, !torch.vtensor<[32],f32>, !torch.vtensor<[32],f32>, !torch.vtensor<[192,32,1,1],f32>, !torch.vtensor<[192],f32>, !torch.vtensor<[192],f32>, !torch.vtensor<[192],f32>, !torch.vtensor<[192,1,3,3],f32>, !torch.vtensor<[192],f32>, !torch.vtensor<[192],f32>, !torch.vtensor<[192],f32>, !torch.vtensor<[32,192,1,1],f32>, !torch.vtensor<[32],f32>, !torch.vtensor<[32],f32>, !torch.vtensor<[32],f32>, !torch.vtensor<[192,32,1,1],f32>, !torch.vtensor<[192],f32>, !torch.vtensor<[192],f32>, !torch.vtensor<[192],f32>, !torch.vtensor<[192,1,3,3],f32>, !torch.vtensor<[192],f32>, !torch.vtensor<[192],f32>, !torch.vtensor<[192],f32>, !torch.vtensor<[64,192,1,1],f32>, !torch.vtensor<[64],f32>, !torch.vtensor<[64],f32>, !torch.vtensor<[64],f32>, !torch.vtensor<[384,64,1,1],f32>, !torch.vtensor<[384],f32>, !torch.vtensor<[384],f32>, !torch.vtensor<[384],f32>, !torch.vtensor<[384,1,3,3],f32>, !torch.vtensor<[384],f32>, !torch.vtensor<[384],f32>, !torch.vtensor<[384],f32>, !torch.vtensor<[64,384,1,1],f32>, !torch.vtensor<[64],f32>, !torch.vtensor<[64],f32>, !torch.vtensor<[64],f32>, !torch.vtensor<[384,64,1,1],f32>, !torch.vtensor<[384],f32>, !torch.vtensor<[384],f32>, !torch.vtensor<[384],f32>, !torch.vtensor<[384,1,3,3],f32>, !torch.vtensor<[384],f32>, !torch.vtensor<[384],f32>, !torch.vtensor<[384],f32>, !torch.vtensor<[64,384,1,1],f32>, !torch.vtensor<[64],f32>, !torch.vtensor<[64],f32>, !torch.vtensor<[64],f32>, !torch.vtensor<[384,64,1,1],f32>, !torch.vtensor<[384],f32>, !torch.vtensor<[384],f32>, !torch.vtensor<[384],f32>, !torch.vtensor<[384,1,3,3],f32>, !torch.vtensor<[384],f32>, !torch.vtensor<[384],f32>, !torch.vtensor<[384],f32>, !torch.vtensor<[64,384,1,1],f32>, !torch.vtensor<[64],f32>, !torch.vtensor<[64],f32>, !torch.vtensor<[64],f32>, !torch.vtensor<[384,64,1,1],f32>, !torch.vtensor<[384],f32>, !torch.vtensor<[384],f32>, !torch.vtensor<[384],f32>, !torch.vtensor<[384,1,3,3],f32>, !torch.vtensor<[384],f32>, !torch.vtensor<[384],f32>, !torch.vtensor<[384],f32>, !torch.vtensor<[96,384,1,1],f32>, !torch.vtensor<[96],f32>, !torch.vtensor<[96],f32>, !torch.vtensor<[96],f32>, !torch.vtensor<[576,96,1,1],f32>, !torch.vtensor<[576],f32>, !torch.vtensor<[576],f32>, !torch.vtensor<[576],f32>, !torch.vtensor<[576,1,3,3],f32>, !torch.vtensor<[576],f32>, !torch.vtensor<[576],f32>, !torch.vtensor<[576],f32>, !torch.vtensor<[96,576,1,1],f32>, !torch.vtensor<[96],f32>, !torch.vtensor<[96],f32>, !torch.vtensor<[96],f32>, !torch.vtensor<[576,96,1,1],f32>, !torch.vtensor<[576],f32>, !torch.vtensor<[576],f32>, !torch.vtensor<[576],f32>, !torch.vtensor<[576,1,3,3],f32>, !torch.vtensor<[576],f32>, !torch.vtensor<[576],f32>, !torch.vtensor<[576],f32>, !torch.vtensor<[96,576,1,1],f32>, !torch.vtensor<[96],f32>, !torch.vtensor<[96],f32>, !torch.vtensor<[96],f32>, !torch.vtensor<[576,96,1,1],f32>, !torch.vtensor<[576],f32>, !torch.vtensor<[576],f32>, !torch.vtensor<[576],f32>, !torch.vtensor<[576,1,3,3],f32>, !torch.vtensor<[576],f32>, !torch.vtensor<[576],f32>, !torch.vtensor<[576],f32>, !torch.vtensor<[160,576,1,1],f32>, !torch.vtensor<[160],f32>, !torch.vtensor<[160],f32>, !torch.vtensor<[160],f32>, !torch.vtensor<[960,160,1,1],f32>, !torch.vtensor<[960],f32>, !torch.vtensor<[960],f32>, !torch.vtensor<[960],f32>, !torch.vtensor<[960,1,3,3],f32>, !torch.vtensor<[960],f32>, !torch.vtensor<[960],f32>, !torch.vtensor<[960],f32>, !torch.vtensor<[160,960,1,1],f32>, !torch.vtensor<[160],f32>, !torch.vtensor<[160],f32>, !torch.vtensor<[160],f32>, !torch.vtensor<[960,160,1,1],f32>, !torch.vtensor<[960],f32>, !torch.vtensor<[960],f32>, !torch.vtensor<[960],f32>, !torch.vtensor<[960,1,3,3],f32>, !torch.vtensor<[960],f32>, !torch.vtensor<[960],f32>, !torch.vtensor<[960],f32>, !torch.vtensor<[160,960,1,1],f32>, !torch.vtensor<[160],f32>, !torch.vtensor<[160],f32>, !torch.vtensor<[160],f32>, !torch.vtensor<[960,160,1,1],f32>, !torch.vtensor<[960],f32>, !torch.vtensor<[960],f32>, !torch.vtensor<[960],f32>, !torch.vtensor<[960,1,3,3],f32>, !torch.vtensor<[960],f32>, !torch.vtensor<[960],f32>, !torch.vtensor<[960],f32>, !torch.vtensor<[320,960,1,1],f32>, !torch.vtensor<[320],f32>, !torch.vtensor<[320],f32>, !torch.vtensor<[320],f32>, !torch.vtensor<[1280,320,1,1],f32>, !torch.vtensor<[1280],f32>, !torch.vtensor<[1280],f32>, !torch.vtensor<[1280],f32>, !torch.vtensor<[1,3,225,225],f32>, !torch.vtensor<[1,32,112,112],f32>, !torch.vtensor<[1,32,112,112],f32>, !torch.vtensor<[0],f32>, !torch.vtensor<[0],f32>, !torch.vtensor<[1,32,114,114],f32>, !torch.vtensor<[1,32,112,112],f32>, !torch.vtensor<[1,32,112,112],f32>, !torch.vtensor<[0],f32>, !torch.vtensor<[0],f32>, !torch.vtensor<[1,32,112,112],f32>, !torch.vtensor<[1,16,112,112],f32>, !torch.vtensor<[0],f32>, !torch.vtensor<[0],f32>, !torch.vtensor<[1,16,112,112],f32>, !torch.vtensor<[1,96,112,112],f32>, !torch.vtensor<[1,96,112,112],f32>, !torch.vtensor<[0],f32>, !torch.vtensor<[0],f32>, !torch.vtensor<[1,96,113,113],f32>, !torch.vtensor<[1,96,56,56],f32>, !torch.vtensor<[1,96,56,56],f32>, !torch.vtensor<[0],f32>, !torch.vtensor<[0],f32>, !torch.vtensor<[1,96,56,56],f32>, !torch.vtensor<[1,24,56,56],f32>, !torch.vtensor<[0],f32>, !torch.vtensor<[0],f32>, !torch.vtensor<[1,24,56,56],f32>, !torch.vtensor<[1,144,56,56],f32>, !torch.vtensor<[1,144,56,56],f32>, !torch.vtensor<[0],f32>, !torch.vtensor<[0],f32>, !torch.vtensor<[1,144,58,58],f32>, !torch.vtensor<[1,144,56,56],f32>, !torch.vtensor<[1,144,56,56],f32>, !torch.vtensor<[0],f32>, !torch.vtensor<[0],f32>, !torch.vtensor<[1,144,56,56],f32>, !torch.vtensor<[1,24,56,56],f32>, !torch.vtensor<[0],f32>, !torch.vtensor<[0],f32>, !torch.vtensor<[1,24,56,56],f32>, !torch.vtensor<[1,144,56,56],f32>, !torch.vtensor<[1,144,56,56],f32>, !torch.vtensor<[0],f32>, !torch.vtensor<[0],f32>, !torch.vtensor<[1,144,57,57],f32>, !torch.vtensor<[1,144,28,28],f32>, !torch.vtensor<[1,144,28,28],f32>, !torch.vtensor<[0],f32>, !torch.vtensor<[0],f32>, !torch.vtensor<[1,144,28,28],f32>, !torch.vtensor<[1,32,28,28],f32>, !torch.vtensor<[0],f32>, !torch.vtensor<[0],f32>, !torch.vtensor<[1,32,28,28],f32>, !torch.vtensor<[1,192,28,28],f32>, !torch.vtensor<[1,192,28,28],f32>, !torch.vtensor<[0],f32>, !torch.vtensor<[0],f32>, !torch.vtensor<[1,192,30,30],f32>, !torch.vtensor<[1,192,28,28],f32>, !torch.vtensor<[1,192,28,28],f32>, !torch.vtensor<[0],f32>, !torch.vtensor<[0],f32>, !torch.vtensor<[1,192,28,28],f32>, !torch.vtensor<[1,32,28,28],f32>, !torch.vtensor<[0],f32>, !torch.vtensor<[0],f32>, !torch.vtensor<[1,32,28,28],f32>, !torch.vtensor<[1,192,28,28],f32>, !torch.vtensor<[1,192,28,28],f32>, !torch.vtensor<[0],f32>, !torch.vtensor<[0],f32>, !torch.vtensor<[1,192,30,30],f32>, !torch.vtensor<[1,192,28,28],f32>, !torch.vtensor<[1,192,28,28],f32>, !torch.vtensor<[0],f32>, !torch.vtensor<[0],f32>, !torch.vtensor<[1,192,28,28],f32>, !torch.vtensor<[1,32,28,28],f32>, !torch.vtensor<[0],f32>, !torch.vtensor<[0],f32>, !torch.vtensor<[1,32,28,28],f32>, !torch.vtensor<[1,192,28,28],f32>, !torch.vtensor<[1,192,28,28],f32>, !torch.vtensor<[0],f32>, !torch.vtensor<[0],f32>, !torch.vtensor<[1,192,29,29],f32>, !torch.vtensor<[1,192,14,14],f32>, !torch.vtensor<[1,192,14,14],f32>, !torch.vtensor<[0],f32>, !torch.vtensor<[0],f32>, !torch.vtensor<[1,192,14,14],f32>, !torch.vtensor<[1,64,14,14],f32>, !torch.vtensor<[0],f32>, !torch.vtensor<[0],f32>, !torch.vtensor<[1,64,14,14],f32>, !torch.vtensor<[1,384,14,14],f32>, !torch.vtensor<[1,384,14,14],f32>, !torch.vtensor<[0],f32>, !torch.vtensor<[0],f32>, !torch.vtensor<[1,384,16,16],f32>, !torch.vtensor<[1,384,14,14],f32>, !torch.vtensor<[1,384,14,14],f32>, !torch.vtensor<[0],f32>, !torch.vtensor<[0],f32>, !torch.vtensor<[1,384,14,14],f32>, !torch.vtensor<[1,64,14,14],f32>, !torch.vtensor<[0],f32>, !torch.vtensor<[0],f32>, !torch.vtensor<[1,64,14,14],f32>, !torch.vtensor<[1,384,14,14],f32>, !torch.vtensor<[1,384,14,14],f32>, !torch.vtensor<[0],f32>, !torch.vtensor<[0],f32>, !torch.vtensor<[1,384,16,16],f32>, !torch.vtensor<[1,384,14,14],f32>, !torch.vtensor<[1,384,14,14],f32>, !torch.vtensor<[0],f32>, !torch.vtensor<[0],f32>, !torch.vtensor<[1,384,14,14],f32>, !torch.vtensor<[1,64,14,14],f32>, !torch.vtensor<[0],f32>, !torch.vtensor<[0],f32>, !torch.vtensor<[1,64,14,14],f32>, !torch.vtensor<[1,384,14,14],f32>, !torch.vtensor<[1,384,14,14],f32>, !torch.vtensor<[0],f32>, !torch.vtensor<[0],f32>, !torch.vtensor<[1,384,16,16],f32>, !torch.vtensor<[1,384,14,14],f32>, !torch.vtensor<[1,384,14,14],f32>, !torch.vtensor<[0],f32>, !torch.vtensor<[0],f32>, !torch.vtensor<[1,384,14,14],f32>, !torch.vtensor<[1,64,14,14],f32>, !torch.vtensor<[0],f32>, !torch.vtensor<[0],f32>, !torch.vtensor<[1,64,14,14],f32>, !torch.vtensor<[1,384,14,14],f32>, !torch.vtensor<[1,384,14,14],f32>, !torch.vtensor<[0],f32>, !torch.vtensor<[0],f32>, !torch.vtensor<[1,384,16,16],f32>, !torch.vtensor<[1,384,14,14],f32>, !torch.vtensor<[1,384,14,14],f32>, !torch.vtensor<[0],f32>, !torch.vtensor<[0],f32>, !torch.vtensor<[1,384,14,14],f32>, !torch.vtensor<[1,96,14,14],f32>, !torch.vtensor<[0],f32>, !torch.vtensor<[0],f32>, !torch.vtensor<[1,96,14,14],f32>, !torch.vtensor<[1,576,14,14],f32>, !torch.vtensor<[1,576,14,14],f32>, !torch.vtensor<[0],f32>, !torch.vtensor<[0],f32>, !torch.vtensor<[1,576,16,16],f32>, !torch.vtensor<[1,576,14,14],f32>, !torch.vtensor<[1,576,14,14],f32>, !torch.vtensor<[0],f32>, !torch.vtensor<[0],f32>, !torch.vtensor<[1,576,14,14],f32>, !torch.vtensor<[1,96,14,14],f32>, !torch.vtensor<[0],f32>, !torch.vtensor<[0],f32>, !torch.vtensor<[1,96,14,14],f32>, !torch.vtensor<[1,576,14,14],f32>, !torch.vtensor<[1,576,14,14],f32>, !torch.vtensor<[0],f32>, !torch.vtensor<[0],f32>, !torch.vtensor<[1,576,16,16],f32>, !torch.vtensor<[1,576,14,14],f32>, !torch.vtensor<[1,576,14,14],f32>, !torch.vtensor<[0],f32>, !torch.vtensor<[0],f32>, !torch.vtensor<[1,576,14,14],f32>, !torch.vtensor<[1,96,14,14],f32>, !torch.vtensor<[0],f32>, !torch.vtensor<[0],f32>, !torch.vtensor<[1,96,14,14],f32>, !torch.vtensor<[1,576,14,14],f32>, !torch.vtensor<[1,576,14,14],f32>, !torch.vtensor<[0],f32>, !torch.vtensor<[0],f32>, !torch.vtensor<[1,576,15,15],f32>, !torch.vtensor<[1,576,7,7],f32>, !torch.vtensor<[1,576,7,7],f32>, !torch.vtensor<[0],f32>, !torch.vtensor<[0],f32>, !torch.vtensor<[1,576,7,7],f32>, !torch.vtensor<[1,160,7,7],f32>, !torch.vtensor<[0],f32>, !torch.vtensor<[0],f32>, !torch.vtensor<[1,160,7,7],f32>, !torch.vtensor<[1,960,7,7],f32>, !torch.vtensor<[1,960,7,7],f32>, !torch.vtensor<[0],f32>, !torch.vtensor<[0],f32>, !torch.vtensor<[1,960,9,9],f32>, !torch.vtensor<[1,960,7,7],f32>, !torch.vtensor<[1,960,7,7],f32>, !torch.vtensor<[0],f32>, !torch.vtensor<[0],f32>, !torch.vtensor<[1,960,7,7],f32>, !torch.vtensor<[1,160,7,7],f32>, !torch.vtensor<[0],f32>, !torch.vtensor<[0],f32>, !torch.vtensor<[1,160,7,7],f32>, !torch.vtensor<[1,960,7,7],f32>, !torch.vtensor<[1,960,7,7],f32>, !torch.vtensor<[0],f32>, !torch.vtensor<[0],f32>, !torch.vtensor<[1,960,9,9],f32>, !torch.vtensor<[1,960,7,7],f32>, !torch.vtensor<[1,960,7,7],f32>, !torch.vtensor<[0],f32>, !torch.vtensor<[0],f32>, !torch.vtensor<[1,960,7,7],f32>, !torch.vtensor<[1,160,7,7],f32>, !torch.vtensor<[0],f32>, !torch.vtensor<[0],f32>, !torch.vtensor<[1,160,7,7],f32>, !torch.vtensor<[1,960,7,7],f32>, !torch.vtensor<[1,960,7,7],f32>, !torch.vtensor<[0],f32>, !torch.vtensor<[0],f32>, !torch.vtensor<[1,960,9,9],f32>, !torch.vtensor<[1,960,7,7],f32>, !torch.vtensor<[1,960,7,7],f32>, !torch.vtensor<[0],f32>, !torch.vtensor<[0],f32>, !torch.vtensor<[1,960,7,7],f32>, !torch.vtensor<[1,320,7,7],f32>, !torch.vtensor<[0],f32>, !torch.vtensor<[0],f32>, !torch.vtensor<[1,320,7,7],f32>, !torch.vtensor<[1,1280,7,7],f32>, !torch.vtensor<[1,1280,7,7],f32>, !torch.vtensor<[0],f32>, !torch.vtensor<[0],f32>, !torch.vtensor<[1,1280],f32>, !torch.vtensor<[1280,1001],f32>) {
    %int0 = torch.constant.int 0
    %int1 = torch.constant.int 1
    %int0_0 = torch.constant.int 0
    %int1_1 = torch.constant.int 1
    %0 = torch.prim.ListConstruct %int0, %int1, %int0_0, %int1_1 : (!torch.int, !torch.int, !torch.int, !torch.int) -> !torch.list<int>
    %float0.000000e00 = torch.constant.float 0.000000e+00
    %1 = torch.aten.constant_pad_nd %arg0, %0, %float0.000000e00 : !torch.vtensor<[1,3,224,224],f32>, !torch.list<int>, !torch.float -> !torch.vtensor<[1,3,225,225],f32>
    %none = torch.constant.none
    %int2 = torch.constant.int 2
    %int2_2 = torch.constant.int 2
    %2 = torch.prim.ListConstruct %int2, %int2_2 : (!torch.int, !torch.int) -> !torch.list<int>
    %int0_3 = torch.constant.int 0
    %int0_4 = torch.constant.int 0
    %3 = torch.prim.ListConstruct %int0_3, %int0_4 : (!torch.int, !torch.int) -> !torch.list<int>
    %int1_5 = torch.constant.int 1
    %int1_6 = torch.constant.int 1
    %4 = torch.prim.ListConstruct %int1_5, %int1_6 : (!torch.int, !torch.int) -> !torch.list<int>
    %false = torch.constant.bool false
    %int0_7 = torch.constant.int 0
    %int0_8 = torch.constant.int 0
    %5 = torch.prim.ListConstruct %int0_7, %int0_8 : (!torch.int, !torch.int) -> !torch.list<int>
    %int1_9 = torch.constant.int 1
    %6 = torch.aten.convolution %1, %arg1, %none, %2, %3, %4, %false, %5, %int1_9 : !torch.vtensor<[1,3,225,225],f32>, !torch.vtensor<[32,3,3,3],f32>, !torch.none, !torch.list<int>, !torch.list<int>, !torch.list<int>, !torch.bool, !torch.list<int>, !torch.int -> !torch.vtensor<[1,32,112,112],f32>
    %int6 = torch.constant.int 6
    %7 = torch.prims.convert_element_type %arg2, %int6 : !torch.vtensor<[32],f32>, !torch.int -> !torch.vtensor<[32],f32>
    %int6_10 = torch.constant.int 6
    %8 = torch.prims.convert_element_type %arg3, %int6_10 : !torch.vtensor<[32],f32>, !torch.int -> !torch.vtensor<[32],f32>
    %float1.000000e-03 = torch.constant.float 1.000000e-03
    %int1_11 = torch.constant.int 1
    %9 = torch.aten.add.Scalar %8, %float1.000000e-03, %int1_11 : !torch.vtensor<[32],f32>, !torch.float, !torch.int -> !torch.vtensor<[32],f32>
    %10 = torch.aten.sqrt %9 : !torch.vtensor<[32],f32> -> !torch.vtensor<[32],f32>
    %11 = torch.aten.reciprocal %10 : !torch.vtensor<[32],f32> -> !torch.vtensor<[32],f32>
    %int1_12 = torch.constant.int 1
    %12 = torch.aten.mul.Scalar %11, %int1_12 : !torch.vtensor<[32],f32>, !torch.int -> !torch.vtensor<[32],f32>
    %int0_13 = torch.constant.int 0
    %13 = torch.prim.ListConstruct %int0_13 : (!torch.int) -> !torch.list<int>
    %none_14 = torch.constant.none
    %none_15 = torch.constant.none
    %none_16 = torch.constant.none
    %false_17 = torch.constant.bool false
    %14 = torch.aten.new_zeros %6, %13, %none_14, %none_15, %none_16, %false_17 : !torch.vtensor<[1,32,112,112],f32>, !torch.list<int>, !torch.none, !torch.none, !torch.none, !torch.bool -> !torch.vtensor<[0],f32>
    %int0_18 = torch.constant.int 0
    %15 = torch.prim.ListConstruct %int0_18 : (!torch.int) -> !torch.list<int>
    %none_19 = torch.constant.none
    %none_20 = torch.constant.none
    %none_21 = torch.constant.none
    %false_22 = torch.constant.bool false
    %16 = torch.aten.new_zeros %6, %15, %none_19, %none_20, %none_21, %false_22 : !torch.vtensor<[1,32,112,112],f32>, !torch.list<int>, !torch.none, !torch.none, !torch.none, !torch.bool -> !torch.vtensor<[0],f32>
    %int-1 = torch.constant.int -1
    %17 = torch.aten.unsqueeze %7, %int-1 : !torch.vtensor<[32],f32>, !torch.int -> !torch.vtensor<[32,1],f32>
    %int-1_23 = torch.constant.int -1
    %18 = torch.aten.unsqueeze %17, %int-1_23 : !torch.vtensor<[32,1],f32>, !torch.int -> !torch.vtensor<[32,1,1],f32>
    %int-1_24 = torch.constant.int -1
    %19 = torch.aten.unsqueeze %12, %int-1_24 : !torch.vtensor<[32],f32>, !torch.int -> !torch.vtensor<[32,1],f32>
    %int-1_25 = torch.constant.int -1
    %20 = torch.aten.unsqueeze %19, %int-1_25 : !torch.vtensor<[32,1],f32>, !torch.int -> !torch.vtensor<[32,1,1],f32>
    %int1_26 = torch.constant.int 1
    %21 = torch.aten.sub.Tensor %6, %18, %int1_26 : !torch.vtensor<[1,32,112,112],f32>, !torch.vtensor<[32,1,1],f32>, !torch.int -> !torch.vtensor<[1,32,112,112],f32>
    %22 = torch.aten.mul.Tensor %21, %20 : !torch.vtensor<[1,32,112,112],f32>, !torch.vtensor<[32,1,1],f32> -> !torch.vtensor<[1,32,112,112],f32>
    %int-1_27 = torch.constant.int -1
    %23 = torch.aten.unsqueeze %arg4, %int-1_27 : !torch.vtensor<[32],f32>, !torch.int -> !torch.vtensor<[32,1],f32>
    %int-1_28 = torch.constant.int -1
    %24 = torch.aten.unsqueeze %23, %int-1_28 : !torch.vtensor<[32,1],f32>, !torch.int -> !torch.vtensor<[32,1,1],f32>
    %25 = torch.aten.mul.Tensor %22, %24 : !torch.vtensor<[1,32,112,112],f32>, !torch.vtensor<[32,1,1],f32> -> !torch.vtensor<[1,32,112,112],f32>
    %int-1_29 = torch.constant.int -1
    %26 = torch.aten.unsqueeze %arg5, %int-1_29 : !torch.vtensor<[32],f32>, !torch.int -> !torch.vtensor<[32,1],f32>
    %int-1_30 = torch.constant.int -1
    %27 = torch.aten.unsqueeze %26, %int-1_30 : !torch.vtensor<[32,1],f32>, !torch.int -> !torch.vtensor<[32,1,1],f32>
    %int1_31 = torch.constant.int 1
    %28 = torch.aten.add.Tensor %25, %27, %int1_31 : !torch.vtensor<[1,32,112,112],f32>, !torch.vtensor<[32,1,1],f32>, !torch.int -> !torch.vtensor<[1,32,112,112],f32>
    %float0.000000e00_32 = torch.constant.float 0.000000e+00
    %float6.000000e00 = torch.constant.float 6.000000e+00
    %29 = torch.aten.hardtanh %28, %float0.000000e00_32, %float6.000000e00 : !torch.vtensor<[1,32,112,112],f32>, !torch.float, !torch.float -> !torch.vtensor<[1,32,112,112],f32>
    %int1_33 = torch.constant.int 1
    %int1_34 = torch.constant.int 1
    %int1_35 = torch.constant.int 1
    %int1_36 = torch.constant.int 1
    %30 = torch.prim.ListConstruct %int1_33, %int1_34, %int1_35, %int1_36 : (!torch.int, !torch.int, !torch.int, !torch.int) -> !torch.list<int>
    %float0.000000e00_37 = torch.constant.float 0.000000e+00
    %31 = torch.aten.constant_pad_nd %29, %30, %float0.000000e00_37 : !torch.vtensor<[1,32,112,112],f32>, !torch.list<int>, !torch.float -> !torch.vtensor<[1,32,114,114],f32>
    %none_38 = torch.constant.none
    %int1_39 = torch.constant.int 1
    %int1_40 = torch.constant.int 1
    %32 = torch.prim.ListConstruct %int1_39, %int1_40 : (!torch.int, !torch.int) -> !torch.list<int>
    %int0_41 = torch.constant.int 0
    %int0_42 = torch.constant.int 0
    %33 = torch.prim.ListConstruct %int0_41, %int0_42 : (!torch.int, !torch.int) -> !torch.list<int>
    %int1_43 = torch.constant.int 1
    %int1_44 = torch.constant.int 1
    %34 = torch.prim.ListConstruct %int1_43, %int1_44 : (!torch.int, !torch.int) -> !torch.list<int>
    %false_45 = torch.constant.bool false
    %int0_46 = torch.constant.int 0
    %int0_47 = torch.constant.int 0
    %35 = torch.prim.ListConstruct %int0_46, %int0_47 : (!torch.int, !torch.int) -> !torch.list<int>
    %int32 = torch.constant.int 32
    %36 = torch.aten.convolution %31, %arg6, %none_38, %32, %33, %34, %false_45, %35, %int32 : !torch.vtensor<[1,32,114,114],f32>, !torch.vtensor<[32,1,3,3],f32>, !torch.none, !torch.list<int>, !torch.list<int>, !torch.list<int>, !torch.bool, !torch.list<int>, !torch.int -> !torch.vtensor<[1,32,112,112],f32>
    %int6_48 = torch.constant.int 6
    %37 = torch.prims.convert_element_type %arg7, %int6_48 : !torch.vtensor<[32],f32>, !torch.int -> !torch.vtensor<[32],f32>
    %int6_49 = torch.constant.int 6
    %38 = torch.prims.convert_element_type %arg8, %int6_49 : !torch.vtensor<[32],f32>, !torch.int -> !torch.vtensor<[32],f32>
    %float1.000000e-03_50 = torch.constant.float 1.000000e-03
    %int1_51 = torch.constant.int 1
    %39 = torch.aten.add.Scalar %38, %float1.000000e-03_50, %int1_51 : !torch.vtensor<[32],f32>, !torch.float, !torch.int -> !torch.vtensor<[32],f32>
    %40 = torch.aten.sqrt %39 : !torch.vtensor<[32],f32> -> !torch.vtensor<[32],f32>
    %41 = torch.aten.reciprocal %40 : !torch.vtensor<[32],f32> -> !torch.vtensor<[32],f32>
    %int1_52 = torch.constant.int 1
    %42 = torch.aten.mul.Scalar %41, %int1_52 : !torch.vtensor<[32],f32>, !torch.int -> !torch.vtensor<[32],f32>
    %int0_53 = torch.constant.int 0
    %43 = torch.prim.ListConstruct %int0_53 : (!torch.int) -> !torch.list<int>
    %none_54 = torch.constant.none
    %none_55 = torch.constant.none
    %none_56 = torch.constant.none
    %false_57 = torch.constant.bool false
    %44 = torch.aten.new_zeros %36, %43, %none_54, %none_55, %none_56, %false_57 : !torch.vtensor<[1,32,112,112],f32>, !torch.list<int>, !torch.none, !torch.none, !torch.none, !torch.bool -> !torch.vtensor<[0],f32>
    %int0_58 = torch.constant.int 0
    %45 = torch.prim.ListConstruct %int0_58 : (!torch.int) -> !torch.list<int>
    %none_59 = torch.constant.none
    %none_60 = torch.constant.none
    %none_61 = torch.constant.none
    %false_62 = torch.constant.bool false
    %46 = torch.aten.new_zeros %36, %45, %none_59, %none_60, %none_61, %false_62 : !torch.vtensor<[1,32,112,112],f32>, !torch.list<int>, !torch.none, !torch.none, !torch.none, !torch.bool -> !torch.vtensor<[0],f32>
    %int-1_63 = torch.constant.int -1
    %47 = torch.aten.unsqueeze %37, %int-1_63 : !torch.vtensor<[32],f32>, !torch.int -> !torch.vtensor<[32,1],f32>
    %int-1_64 = torch.constant.int -1
    %48 = torch.aten.unsqueeze %47, %int-1_64 : !torch.vtensor<[32,1],f32>, !torch.int -> !torch.vtensor<[32,1,1],f32>
    %int-1_65 = torch.constant.int -1
    %49 = torch.aten.unsqueeze %42, %int-1_65 : !torch.vtensor<[32],f32>, !torch.int -> !torch.vtensor<[32,1],f32>
    %int-1_66 = torch.constant.int -1
    %50 = torch.aten.unsqueeze %49, %int-1_66 : !torch.vtensor<[32,1],f32>, !torch.int -> !torch.vtensor<[32,1,1],f32>
    %int1_67 = torch.constant.int 1
    %51 = torch.aten.sub.Tensor %36, %48, %int1_67 : !torch.vtensor<[1,32,112,112],f32>, !torch.vtensor<[32,1,1],f32>, !torch.int -> !torch.vtensor<[1,32,112,112],f32>
    %52 = torch.aten.mul.Tensor %51, %50 : !torch.vtensor<[1,32,112,112],f32>, !torch.vtensor<[32,1,1],f32> -> !torch.vtensor<[1,32,112,112],f32>
    %int-1_68 = torch.constant.int -1
    %53 = torch.aten.unsqueeze %arg9, %int-1_68 : !torch.vtensor<[32],f32>, !torch.int -> !torch.vtensor<[32,1],f32>
    %int-1_69 = torch.constant.int -1
    %54 = torch.aten.unsqueeze %53, %int-1_69 : !torch.vtensor<[32,1],f32>, !torch.int -> !torch.vtensor<[32,1,1],f32>
    %55 = torch.aten.mul.Tensor %52, %54 : !torch.vtensor<[1,32,112,112],f32>, !torch.vtensor<[32,1,1],f32> -> !torch.vtensor<[1,32,112,112],f32>
    %int-1_70 = torch.constant.int -1
    %56 = torch.aten.unsqueeze %arg10, %int-1_70 : !torch.vtensor<[32],f32>, !torch.int -> !torch.vtensor<[32,1],f32>
    %int-1_71 = torch.constant.int -1
    %57 = torch.aten.unsqueeze %56, %int-1_71 : !torch.vtensor<[32,1],f32>, !torch.int -> !torch.vtensor<[32,1,1],f32>
    %int1_72 = torch.constant.int 1
    %58 = torch.aten.add.Tensor %55, %57, %int1_72 : !torch.vtensor<[1,32,112,112],f32>, !torch.vtensor<[32,1,1],f32>, !torch.int -> !torch.vtensor<[1,32,112,112],f32>
    %float0.000000e00_73 = torch.constant.float 0.000000e+00
    %float6.000000e00_74 = torch.constant.float 6.000000e+00
    %59 = torch.aten.hardtanh %58, %float0.000000e00_73, %float6.000000e00_74 : !torch.vtensor<[1,32,112,112],f32>, !torch.float, !torch.float -> !torch.vtensor<[1,32,112,112],f32>
    %int0_75 = torch.constant.int 0
    %int0_76 = torch.constant.int 0
    %int0_77 = torch.constant.int 0
    %int0_78 = torch.constant.int 0
    %60 = torch.prim.ListConstruct %int0_75, %int0_76, %int0_77, %int0_78 : (!torch.int, !torch.int, !torch.int, !torch.int) -> !torch.list<int>
    %float0.000000e00_79 = torch.constant.float 0.000000e+00
    %61 = torch.aten.constant_pad_nd %59, %60, %float0.000000e00_79 : !torch.vtensor<[1,32,112,112],f32>, !torch.list<int>, !torch.float -> !torch.vtensor<[1,32,112,112],f32>
    %none_80 = torch.constant.none
    %int1_81 = torch.constant.int 1
    %int1_82 = torch.constant.int 1
    %62 = torch.prim.ListConstruct %int1_81, %int1_82 : (!torch.int, !torch.int) -> !torch.list<int>
    %int0_83 = torch.constant.int 0
    %int0_84 = torch.constant.int 0
    %63 = torch.prim.ListConstruct %int0_83, %int0_84 : (!torch.int, !torch.int) -> !torch.list<int>
    %int1_85 = torch.constant.int 1
    %int1_86 = torch.constant.int 1
    %64 = torch.prim.ListConstruct %int1_85, %int1_86 : (!torch.int, !torch.int) -> !torch.list<int>
    %false_87 = torch.constant.bool false
    %int0_88 = torch.constant.int 0
    %int0_89 = torch.constant.int 0
    %65 = torch.prim.ListConstruct %int0_88, %int0_89 : (!torch.int, !torch.int) -> !torch.list<int>
    %int1_90 = torch.constant.int 1
    %66 = torch.aten.convolution %61, %arg11, %none_80, %62, %63, %64, %false_87, %65, %int1_90 : !torch.vtensor<[1,32,112,112],f32>, !torch.vtensor<[16,32,1,1],f32>, !torch.none, !torch.list<int>, !torch.list<int>, !torch.list<int>, !torch.bool, !torch.list<int>, !torch.int -> !torch.vtensor<[1,16,112,112],f32>
    %int6_91 = torch.constant.int 6
    %67 = torch.prims.convert_element_type %arg12, %int6_91 : !torch.vtensor<[16],f32>, !torch.int -> !torch.vtensor<[16],f32>
    %int6_92 = torch.constant.int 6
    %68 = torch.prims.convert_element_type %arg13, %int6_92 : !torch.vtensor<[16],f32>, !torch.int -> !torch.vtensor<[16],f32>
    %float1.000000e-03_93 = torch.constant.float 1.000000e-03
    %int1_94 = torch.constant.int 1
    %69 = torch.aten.add.Scalar %68, %float1.000000e-03_93, %int1_94 : !torch.vtensor<[16],f32>, !torch.float, !torch.int -> !torch.vtensor<[16],f32>
    %70 = torch.aten.sqrt %69 : !torch.vtensor<[16],f32> -> !torch.vtensor<[16],f32>
    %71 = torch.aten.reciprocal %70 : !torch.vtensor<[16],f32> -> !torch.vtensor<[16],f32>
    %int1_95 = torch.constant.int 1
    %72 = torch.aten.mul.Scalar %71, %int1_95 : !torch.vtensor<[16],f32>, !torch.int -> !torch.vtensor<[16],f32>
    %int0_96 = torch.constant.int 0
    %73 = torch.prim.ListConstruct %int0_96 : (!torch.int) -> !torch.list<int>
    %none_97 = torch.constant.none
    %none_98 = torch.constant.none
    %none_99 = torch.constant.none
    %false_100 = torch.constant.bool false
    %74 = torch.aten.new_zeros %66, %73, %none_97, %none_98, %none_99, %false_100 : !torch.vtensor<[1,16,112,112],f32>, !torch.list<int>, !torch.none, !torch.none, !torch.none, !torch.bool -> !torch.vtensor<[0],f32>
    %int0_101 = torch.constant.int 0
    %75 = torch.prim.ListConstruct %int0_101 : (!torch.int) -> !torch.list<int>
    %none_102 = torch.constant.none
    %none_103 = torch.constant.none
    %none_104 = torch.constant.none
    %false_105 = torch.constant.bool false
    %76 = torch.aten.new_zeros %66, %75, %none_102, %none_103, %none_104, %false_105 : !torch.vtensor<[1,16,112,112],f32>, !torch.list<int>, !torch.none, !torch.none, !torch.none, !torch.bool -> !torch.vtensor<[0],f32>
    %int-1_106 = torch.constant.int -1
    %77 = torch.aten.unsqueeze %67, %int-1_106 : !torch.vtensor<[16],f32>, !torch.int -> !torch.vtensor<[16,1],f32>
    %int-1_107 = torch.constant.int -1
    %78 = torch.aten.unsqueeze %77, %int-1_107 : !torch.vtensor<[16,1],f32>, !torch.int -> !torch.vtensor<[16,1,1],f32>
    %int-1_108 = torch.constant.int -1
    %79 = torch.aten.unsqueeze %72, %int-1_108 : !torch.vtensor<[16],f32>, !torch.int -> !torch.vtensor<[16,1],f32>
    %int-1_109 = torch.constant.int -1
    %80 = torch.aten.unsqueeze %79, %int-1_109 : !torch.vtensor<[16,1],f32>, !torch.int -> !torch.vtensor<[16,1,1],f32>
    %int1_110 = torch.constant.int 1
    %81 = torch.aten.sub.Tensor %66, %78, %int1_110 : !torch.vtensor<[1,16,112,112],f32>, !torch.vtensor<[16,1,1],f32>, !torch.int -> !torch.vtensor<[1,16,112,112],f32>
    %82 = torch.aten.mul.Tensor %81, %80 : !torch.vtensor<[1,16,112,112],f32>, !torch.vtensor<[16,1,1],f32> -> !torch.vtensor<[1,16,112,112],f32>
    %int-1_111 = torch.constant.int -1
    %83 = torch.aten.unsqueeze %arg14, %int-1_111 : !torch.vtensor<[16],f32>, !torch.int -> !torch.vtensor<[16,1],f32>
    %int-1_112 = torch.constant.int -1
    %84 = torch.aten.unsqueeze %83, %int-1_112 : !torch.vtensor<[16,1],f32>, !torch.int -> !torch.vtensor<[16,1,1],f32>
    %85 = torch.aten.mul.Tensor %82, %84 : !torch.vtensor<[1,16,112,112],f32>, !torch.vtensor<[16,1,1],f32> -> !torch.vtensor<[1,16,112,112],f32>
    %int-1_113 = torch.constant.int -1
    %86 = torch.aten.unsqueeze %arg15, %int-1_113 : !torch.vtensor<[16],f32>, !torch.int -> !torch.vtensor<[16,1],f32>
    %int-1_114 = torch.constant.int -1
    %87 = torch.aten.unsqueeze %86, %int-1_114 : !torch.vtensor<[16,1],f32>, !torch.int -> !torch.vtensor<[16,1,1],f32>
    %int1_115 = torch.constant.int 1
    %88 = torch.aten.add.Tensor %85, %87, %int1_115 : !torch.vtensor<[1,16,112,112],f32>, !torch.vtensor<[16,1,1],f32>, !torch.int -> !torch.vtensor<[1,16,112,112],f32>
    %int0_116 = torch.constant.int 0
    %int0_117 = torch.constant.int 0
    %int0_118 = torch.constant.int 0
    %int0_119 = torch.constant.int 0
    %89 = torch.prim.ListConstruct %int0_116, %int0_117, %int0_118, %int0_119 : (!torch.int, !torch.int, !torch.int, !torch.int) -> !torch.list<int>
    %float0.000000e00_120 = torch.constant.float 0.000000e+00
    %90 = torch.aten.constant_pad_nd %88, %89, %float0.000000e00_120 : !torch.vtensor<[1,16,112,112],f32>, !torch.list<int>, !torch.float -> !torch.vtensor<[1,16,112,112],f32>
    %none_121 = torch.constant.none
    %int1_122 = torch.constant.int 1
    %int1_123 = torch.constant.int 1
    %91 = torch.prim.ListConstruct %int1_122, %int1_123 : (!torch.int, !torch.int) -> !torch.list<int>
    %int0_124 = torch.constant.int 0
    %int0_125 = torch.constant.int 0
    %92 = torch.prim.ListConstruct %int0_124, %int0_125 : (!torch.int, !torch.int) -> !torch.list<int>
    %int1_126 = torch.constant.int 1
    %int1_127 = torch.constant.int 1
    %93 = torch.prim.ListConstruct %int1_126, %int1_127 : (!torch.int, !torch.int) -> !torch.list<int>
    %false_128 = torch.constant.bool false
    %int0_129 = torch.constant.int 0
    %int0_130 = torch.constant.int 0
    %94 = torch.prim.ListConstruct %int0_129, %int0_130 : (!torch.int, !torch.int) -> !torch.list<int>
    %int1_131 = torch.constant.int 1
    %95 = torch.aten.convolution %90, %arg16, %none_121, %91, %92, %93, %false_128, %94, %int1_131 : !torch.vtensor<[1,16,112,112],f32>, !torch.vtensor<[96,16,1,1],f32>, !torch.none, !torch.list<int>, !torch.list<int>, !torch.list<int>, !torch.bool, !torch.list<int>, !torch.int -> !torch.vtensor<[1,96,112,112],f32>
    %int6_132 = torch.constant.int 6
    %96 = torch.prims.convert_element_type %arg17, %int6_132 : !torch.vtensor<[96],f32>, !torch.int -> !torch.vtensor<[96],f32>
    %int6_133 = torch.constant.int 6
    %97 = torch.prims.convert_element_type %arg18, %int6_133 : !torch.vtensor<[96],f32>, !torch.int -> !torch.vtensor<[96],f32>
    %float1.000000e-03_134 = torch.constant.float 1.000000e-03
    %int1_135 = torch.constant.int 1
    %98 = torch.aten.add.Scalar %97, %float1.000000e-03_134, %int1_135 : !torch.vtensor<[96],f32>, !torch.float, !torch.int -> !torch.vtensor<[96],f32>
    %99 = torch.aten.sqrt %98 : !torch.vtensor<[96],f32> -> !torch.vtensor<[96],f32>
    %100 = torch.aten.reciprocal %99 : !torch.vtensor<[96],f32> -> !torch.vtensor<[96],f32>
    %int1_136 = torch.constant.int 1
    %101 = torch.aten.mul.Scalar %100, %int1_136 : !torch.vtensor<[96],f32>, !torch.int -> !torch.vtensor<[96],f32>
    %int0_137 = torch.constant.int 0
    %102 = torch.prim.ListConstruct %int0_137 : (!torch.int) -> !torch.list<int>
    %none_138 = torch.constant.none
    %none_139 = torch.constant.none
    %none_140 = torch.constant.none
    %false_141 = torch.constant.bool false
    %103 = torch.aten.new_zeros %95, %102, %none_138, %none_139, %none_140, %false_141 : !torch.vtensor<[1,96,112,112],f32>, !torch.list<int>, !torch.none, !torch.none, !torch.none, !torch.bool -> !torch.vtensor<[0],f32>
    %int0_142 = torch.constant.int 0
    %104 = torch.prim.ListConstruct %int0_142 : (!torch.int) -> !torch.list<int>
    %none_143 = torch.constant.none
    %none_144 = torch.constant.none
    %none_145 = torch.constant.none
    %false_146 = torch.constant.bool false
    %105 = torch.aten.new_zeros %95, %104, %none_143, %none_144, %none_145, %false_146 : !torch.vtensor<[1,96,112,112],f32>, !torch.list<int>, !torch.none, !torch.none, !torch.none, !torch.bool -> !torch.vtensor<[0],f32>
    %int-1_147 = torch.constant.int -1
    %106 = torch.aten.unsqueeze %96, %int-1_147 : !torch.vtensor<[96],f32>, !torch.int -> !torch.vtensor<[96,1],f32>
    %int-1_148 = torch.constant.int -1
    %107 = torch.aten.unsqueeze %106, %int-1_148 : !torch.vtensor<[96,1],f32>, !torch.int -> !torch.vtensor<[96,1,1],f32>
    %int-1_149 = torch.constant.int -1
    %108 = torch.aten.unsqueeze %101, %int-1_149 : !torch.vtensor<[96],f32>, !torch.int -> !torch.vtensor<[96,1],f32>
    %int-1_150 = torch.constant.int -1
    %109 = torch.aten.unsqueeze %108, %int-1_150 : !torch.vtensor<[96,1],f32>, !torch.int -> !torch.vtensor<[96,1,1],f32>
    %int1_151 = torch.constant.int 1
    %110 = torch.aten.sub.Tensor %95, %107, %int1_151 : !torch.vtensor<[1,96,112,112],f32>, !torch.vtensor<[96,1,1],f32>, !torch.int -> !torch.vtensor<[1,96,112,112],f32>
    %111 = torch.aten.mul.Tensor %110, %109 : !torch.vtensor<[1,96,112,112],f32>, !torch.vtensor<[96,1,1],f32> -> !torch.vtensor<[1,96,112,112],f32>
    %int-1_152 = torch.constant.int -1
    %112 = torch.aten.unsqueeze %arg19, %int-1_152 : !torch.vtensor<[96],f32>, !torch.int -> !torch.vtensor<[96,1],f32>
    %int-1_153 = torch.constant.int -1
    %113 = torch.aten.unsqueeze %112, %int-1_153 : !torch.vtensor<[96,1],f32>, !torch.int -> !torch.vtensor<[96,1,1],f32>
    %114 = torch.aten.mul.Tensor %111, %113 : !torch.vtensor<[1,96,112,112],f32>, !torch.vtensor<[96,1,1],f32> -> !torch.vtensor<[1,96,112,112],f32>
    %int-1_154 = torch.constant.int -1
    %115 = torch.aten.unsqueeze %arg20, %int-1_154 : !torch.vtensor<[96],f32>, !torch.int -> !torch.vtensor<[96,1],f32>
    %int-1_155 = torch.constant.int -1
    %116 = torch.aten.unsqueeze %115, %int-1_155 : !torch.vtensor<[96,1],f32>, !torch.int -> !torch.vtensor<[96,1,1],f32>
    %int1_156 = torch.constant.int 1
    %117 = torch.aten.add.Tensor %114, %116, %int1_156 : !torch.vtensor<[1,96,112,112],f32>, !torch.vtensor<[96,1,1],f32>, !torch.int -> !torch.vtensor<[1,96,112,112],f32>
    %float0.000000e00_157 = torch.constant.float 0.000000e+00
    %float6.000000e00_158 = torch.constant.float 6.000000e+00
    %118 = torch.aten.hardtanh %117, %float0.000000e00_157, %float6.000000e00_158 : !torch.vtensor<[1,96,112,112],f32>, !torch.float, !torch.float -> !torch.vtensor<[1,96,112,112],f32>
    %int0_159 = torch.constant.int 0
    %int1_160 = torch.constant.int 1
    %int0_161 = torch.constant.int 0
    %int1_162 = torch.constant.int 1
    %119 = torch.prim.ListConstruct %int0_159, %int1_160, %int0_161, %int1_162 : (!torch.int, !torch.int, !torch.int, !torch.int) -> !torch.list<int>
    %float0.000000e00_163 = torch.constant.float 0.000000e+00
    %120 = torch.aten.constant_pad_nd %118, %119, %float0.000000e00_163 : !torch.vtensor<[1,96,112,112],f32>, !torch.list<int>, !torch.float -> !torch.vtensor<[1,96,113,113],f32>
    %none_164 = torch.constant.none
    %int2_165 = torch.constant.int 2
    %int2_166 = torch.constant.int 2
    %121 = torch.prim.ListConstruct %int2_165, %int2_166 : (!torch.int, !torch.int) -> !torch.list<int>
    %int0_167 = torch.constant.int 0
    %int0_168 = torch.constant.int 0
    %122 = torch.prim.ListConstruct %int0_167, %int0_168 : (!torch.int, !torch.int) -> !torch.list<int>
    %int1_169 = torch.constant.int 1
    %int1_170 = torch.constant.int 1
    %123 = torch.prim.ListConstruct %int1_169, %int1_170 : (!torch.int, !torch.int) -> !torch.list<int>
    %false_171 = torch.constant.bool false
    %int0_172 = torch.constant.int 0
    %int0_173 = torch.constant.int 0
    %124 = torch.prim.ListConstruct %int0_172, %int0_173 : (!torch.int, !torch.int) -> !torch.list<int>
    %int96 = torch.constant.int 96
    %125 = torch.aten.convolution %120, %arg21, %none_164, %121, %122, %123, %false_171, %124, %int96 : !torch.vtensor<[1,96,113,113],f32>, !torch.vtensor<[96,1,3,3],f32>, !torch.none, !torch.list<int>, !torch.list<int>, !torch.list<int>, !torch.bool, !torch.list<int>, !torch.int -> !torch.vtensor<[1,96,56,56],f32>
    %int6_174 = torch.constant.int 6
    %126 = torch.prims.convert_element_type %arg22, %int6_174 : !torch.vtensor<[96],f32>, !torch.int -> !torch.vtensor<[96],f32>
    %int6_175 = torch.constant.int 6
    %127 = torch.prims.convert_element_type %arg23, %int6_175 : !torch.vtensor<[96],f32>, !torch.int -> !torch.vtensor<[96],f32>
    %float1.000000e-03_176 = torch.constant.float 1.000000e-03
    %int1_177 = torch.constant.int 1
    %128 = torch.aten.add.Scalar %127, %float1.000000e-03_176, %int1_177 : !torch.vtensor<[96],f32>, !torch.float, !torch.int -> !torch.vtensor<[96],f32>
    %129 = torch.aten.sqrt %128 : !torch.vtensor<[96],f32> -> !torch.vtensor<[96],f32>
    %130 = torch.aten.reciprocal %129 : !torch.vtensor<[96],f32> -> !torch.vtensor<[96],f32>
    %int1_178 = torch.constant.int 1
    %131 = torch.aten.mul.Scalar %130, %int1_178 : !torch.vtensor<[96],f32>, !torch.int -> !torch.vtensor<[96],f32>
    %int0_179 = torch.constant.int 0
    %132 = torch.prim.ListConstruct %int0_179 : (!torch.int) -> !torch.list<int>
    %none_180 = torch.constant.none
    %none_181 = torch.constant.none
    %none_182 = torch.constant.none
    %false_183 = torch.constant.bool false
    %133 = torch.aten.new_zeros %125, %132, %none_180, %none_181, %none_182, %false_183 : !torch.vtensor<[1,96,56,56],f32>, !torch.list<int>, !torch.none, !torch.none, !torch.none, !torch.bool -> !torch.vtensor<[0],f32>
    %int0_184 = torch.constant.int 0
    %134 = torch.prim.ListConstruct %int0_184 : (!torch.int) -> !torch.list<int>
    %none_185 = torch.constant.none
    %none_186 = torch.constant.none
    %none_187 = torch.constant.none
    %false_188 = torch.constant.bool false
    %135 = torch.aten.new_zeros %125, %134, %none_185, %none_186, %none_187, %false_188 : !torch.vtensor<[1,96,56,56],f32>, !torch.list<int>, !torch.none, !torch.none, !torch.none, !torch.bool -> !torch.vtensor<[0],f32>
    %int-1_189 = torch.constant.int -1
    %136 = torch.aten.unsqueeze %126, %int-1_189 : !torch.vtensor<[96],f32>, !torch.int -> !torch.vtensor<[96,1],f32>
    %int-1_190 = torch.constant.int -1
    %137 = torch.aten.unsqueeze %136, %int-1_190 : !torch.vtensor<[96,1],f32>, !torch.int -> !torch.vtensor<[96,1,1],f32>
    %int-1_191 = torch.constant.int -1
    %138 = torch.aten.unsqueeze %131, %int-1_191 : !torch.vtensor<[96],f32>, !torch.int -> !torch.vtensor<[96,1],f32>
    %int-1_192 = torch.constant.int -1
    %139 = torch.aten.unsqueeze %138, %int-1_192 : !torch.vtensor<[96,1],f32>, !torch.int -> !torch.vtensor<[96,1,1],f32>
    %int1_193 = torch.constant.int 1
    %140 = torch.aten.sub.Tensor %125, %137, %int1_193 : !torch.vtensor<[1,96,56,56],f32>, !torch.vtensor<[96,1,1],f32>, !torch.int -> !torch.vtensor<[1,96,56,56],f32>
    %141 = torch.aten.mul.Tensor %140, %139 : !torch.vtensor<[1,96,56,56],f32>, !torch.vtensor<[96,1,1],f32> -> !torch.vtensor<[1,96,56,56],f32>
    %int-1_194 = torch.constant.int -1
    %142 = torch.aten.unsqueeze %arg24, %int-1_194 : !torch.vtensor<[96],f32>, !torch.int -> !torch.vtensor<[96,1],f32>
    %int-1_195 = torch.constant.int -1
    %143 = torch.aten.unsqueeze %142, %int-1_195 : !torch.vtensor<[96,1],f32>, !torch.int -> !torch.vtensor<[96,1,1],f32>
    %144 = torch.aten.mul.Tensor %141, %143 : !torch.vtensor<[1,96,56,56],f32>, !torch.vtensor<[96,1,1],f32> -> !torch.vtensor<[1,96,56,56],f32>
    %int-1_196 = torch.constant.int -1
    %145 = torch.aten.unsqueeze %arg25, %int-1_196 : !torch.vtensor<[96],f32>, !torch.int -> !torch.vtensor<[96,1],f32>
    %int-1_197 = torch.constant.int -1
    %146 = torch.aten.unsqueeze %145, %int-1_197 : !torch.vtensor<[96,1],f32>, !torch.int -> !torch.vtensor<[96,1,1],f32>
    %int1_198 = torch.constant.int 1
    %147 = torch.aten.add.Tensor %144, %146, %int1_198 : !torch.vtensor<[1,96,56,56],f32>, !torch.vtensor<[96,1,1],f32>, !torch.int -> !torch.vtensor<[1,96,56,56],f32>
    %float0.000000e00_199 = torch.constant.float 0.000000e+00
    %float6.000000e00_200 = torch.constant.float 6.000000e+00
    %148 = torch.aten.hardtanh %147, %float0.000000e00_199, %float6.000000e00_200 : !torch.vtensor<[1,96,56,56],f32>, !torch.float, !torch.float -> !torch.vtensor<[1,96,56,56],f32>
    %int0_201 = torch.constant.int 0
    %int0_202 = torch.constant.int 0
    %int0_203 = torch.constant.int 0
    %int0_204 = torch.constant.int 0
    %149 = torch.prim.ListConstruct %int0_201, %int0_202, %int0_203, %int0_204 : (!torch.int, !torch.int, !torch.int, !torch.int) -> !torch.list<int>
    %float0.000000e00_205 = torch.constant.float 0.000000e+00
    %150 = torch.aten.constant_pad_nd %148, %149, %float0.000000e00_205 : !torch.vtensor<[1,96,56,56],f32>, !torch.list<int>, !torch.float -> !torch.vtensor<[1,96,56,56],f32>
    %none_206 = torch.constant.none
    %int1_207 = torch.constant.int 1
    %int1_208 = torch.constant.int 1
    %151 = torch.prim.ListConstruct %int1_207, %int1_208 : (!torch.int, !torch.int) -> !torch.list<int>
    %int0_209 = torch.constant.int 0
    %int0_210 = torch.constant.int 0
    %152 = torch.prim.ListConstruct %int0_209, %int0_210 : (!torch.int, !torch.int) -> !torch.list<int>
    %int1_211 = torch.constant.int 1
    %int1_212 = torch.constant.int 1
    %153 = torch.prim.ListConstruct %int1_211, %int1_212 : (!torch.int, !torch.int) -> !torch.list<int>
    %false_213 = torch.constant.bool false
    %int0_214 = torch.constant.int 0
    %int0_215 = torch.constant.int 0
    %154 = torch.prim.ListConstruct %int0_214, %int0_215 : (!torch.int, !torch.int) -> !torch.list<int>
    %int1_216 = torch.constant.int 1
    %155 = torch.aten.convolution %150, %arg26, %none_206, %151, %152, %153, %false_213, %154, %int1_216 : !torch.vtensor<[1,96,56,56],f32>, !torch.vtensor<[24,96,1,1],f32>, !torch.none, !torch.list<int>, !torch.list<int>, !torch.list<int>, !torch.bool, !torch.list<int>, !torch.int -> !torch.vtensor<[1,24,56,56],f32>
    %int6_217 = torch.constant.int 6
    %156 = torch.prims.convert_element_type %arg27, %int6_217 : !torch.vtensor<[24],f32>, !torch.int -> !torch.vtensor<[24],f32>
    %int6_218 = torch.constant.int 6
    %157 = torch.prims.convert_element_type %arg28, %int6_218 : !torch.vtensor<[24],f32>, !torch.int -> !torch.vtensor<[24],f32>
    %float1.000000e-03_219 = torch.constant.float 1.000000e-03
    %int1_220 = torch.constant.int 1
    %158 = torch.aten.add.Scalar %157, %float1.000000e-03_219, %int1_220 : !torch.vtensor<[24],f32>, !torch.float, !torch.int -> !torch.vtensor<[24],f32>
    %159 = torch.aten.sqrt %158 : !torch.vtensor<[24],f32> -> !torch.vtensor<[24],f32>
    %160 = torch.aten.reciprocal %159 : !torch.vtensor<[24],f32> -> !torch.vtensor<[24],f32>
    %int1_221 = torch.constant.int 1
    %161 = torch.aten.mul.Scalar %160, %int1_221 : !torch.vtensor<[24],f32>, !torch.int -> !torch.vtensor<[24],f32>
    %int0_222 = torch.constant.int 0
    %162 = torch.prim.ListConstruct %int0_222 : (!torch.int) -> !torch.list<int>
    %none_223 = torch.constant.none
    %none_224 = torch.constant.none
    %none_225 = torch.constant.none
    %false_226 = torch.constant.bool false
    %163 = torch.aten.new_zeros %155, %162, %none_223, %none_224, %none_225, %false_226 : !torch.vtensor<[1,24,56,56],f32>, !torch.list<int>, !torch.none, !torch.none, !torch.none, !torch.bool -> !torch.vtensor<[0],f32>
    %int0_227 = torch.constant.int 0
    %164 = torch.prim.ListConstruct %int0_227 : (!torch.int) -> !torch.list<int>
    %none_228 = torch.constant.none
    %none_229 = torch.constant.none
    %none_230 = torch.constant.none
    %false_231 = torch.constant.bool false
    %165 = torch.aten.new_zeros %155, %164, %none_228, %none_229, %none_230, %false_231 : !torch.vtensor<[1,24,56,56],f32>, !torch.list<int>, !torch.none, !torch.none, !torch.none, !torch.bool -> !torch.vtensor<[0],f32>
    %int-1_232 = torch.constant.int -1
    %166 = torch.aten.unsqueeze %156, %int-1_232 : !torch.vtensor<[24],f32>, !torch.int -> !torch.vtensor<[24,1],f32>
    %int-1_233 = torch.constant.int -1
    %167 = torch.aten.unsqueeze %166, %int-1_233 : !torch.vtensor<[24,1],f32>, !torch.int -> !torch.vtensor<[24,1,1],f32>
    %int-1_234 = torch.constant.int -1
    %168 = torch.aten.unsqueeze %161, %int-1_234 : !torch.vtensor<[24],f32>, !torch.int -> !torch.vtensor<[24,1],f32>
    %int-1_235 = torch.constant.int -1
    %169 = torch.aten.unsqueeze %168, %int-1_235 : !torch.vtensor<[24,1],f32>, !torch.int -> !torch.vtensor<[24,1,1],f32>
    %int1_236 = torch.constant.int 1
    %170 = torch.aten.sub.Tensor %155, %167, %int1_236 : !torch.vtensor<[1,24,56,56],f32>, !torch.vtensor<[24,1,1],f32>, !torch.int -> !torch.vtensor<[1,24,56,56],f32>
    %171 = torch.aten.mul.Tensor %170, %169 : !torch.vtensor<[1,24,56,56],f32>, !torch.vtensor<[24,1,1],f32> -> !torch.vtensor<[1,24,56,56],f32>
    %int-1_237 = torch.constant.int -1
    %172 = torch.aten.unsqueeze %arg29, %int-1_237 : !torch.vtensor<[24],f32>, !torch.int -> !torch.vtensor<[24,1],f32>
    %int-1_238 = torch.constant.int -1
    %173 = torch.aten.unsqueeze %172, %int-1_238 : !torch.vtensor<[24,1],f32>, !torch.int -> !torch.vtensor<[24,1,1],f32>
    %174 = torch.aten.mul.Tensor %171, %173 : !torch.vtensor<[1,24,56,56],f32>, !torch.vtensor<[24,1,1],f32> -> !torch.vtensor<[1,24,56,56],f32>
    %int-1_239 = torch.constant.int -1
    %175 = torch.aten.unsqueeze %arg30, %int-1_239 : !torch.vtensor<[24],f32>, !torch.int -> !torch.vtensor<[24,1],f32>
    %int-1_240 = torch.constant.int -1
    %176 = torch.aten.unsqueeze %175, %int-1_240 : !torch.vtensor<[24,1],f32>, !torch.int -> !torch.vtensor<[24,1,1],f32>
    %int1_241 = torch.constant.int 1
    %177 = torch.aten.add.Tensor %174, %176, %int1_241 : !torch.vtensor<[1,24,56,56],f32>, !torch.vtensor<[24,1,1],f32>, !torch.int -> !torch.vtensor<[1,24,56,56],f32>
    %int0_242 = torch.constant.int 0
    %int0_243 = torch.constant.int 0
    %int0_244 = torch.constant.int 0
    %int0_245 = torch.constant.int 0
    %178 = torch.prim.ListConstruct %int0_242, %int0_243, %int0_244, %int0_245 : (!torch.int, !torch.int, !torch.int, !torch.int) -> !torch.list<int>
    %float0.000000e00_246 = torch.constant.float 0.000000e+00
    %179 = torch.aten.constant_pad_nd %177, %178, %float0.000000e00_246 : !torch.vtensor<[1,24,56,56],f32>, !torch.list<int>, !torch.float -> !torch.vtensor<[1,24,56,56],f32>
    %none_247 = torch.constant.none
    %int1_248 = torch.constant.int 1
    %int1_249 = torch.constant.int 1
    %180 = torch.prim.ListConstruct %int1_248, %int1_249 : (!torch.int, !torch.int) -> !torch.list<int>
    %int0_250 = torch.constant.int 0
    %int0_251 = torch.constant.int 0
    %181 = torch.prim.ListConstruct %int0_250, %int0_251 : (!torch.int, !torch.int) -> !torch.list<int>
    %int1_252 = torch.constant.int 1
    %int1_253 = torch.constant.int 1
    %182 = torch.prim.ListConstruct %int1_252, %int1_253 : (!torch.int, !torch.int) -> !torch.list<int>
    %false_254 = torch.constant.bool false
    %int0_255 = torch.constant.int 0
    %int0_256 = torch.constant.int 0
    %183 = torch.prim.ListConstruct %int0_255, %int0_256 : (!torch.int, !torch.int) -> !torch.list<int>
    %int1_257 = torch.constant.int 1
    %184 = torch.aten.convolution %179, %arg31, %none_247, %180, %181, %182, %false_254, %183, %int1_257 : !torch.vtensor<[1,24,56,56],f32>, !torch.vtensor<[144,24,1,1],f32>, !torch.none, !torch.list<int>, !torch.list<int>, !torch.list<int>, !torch.bool, !torch.list<int>, !torch.int -> !torch.vtensor<[1,144,56,56],f32>
    %int6_258 = torch.constant.int 6
    %185 = torch.prims.convert_element_type %arg32, %int6_258 : !torch.vtensor<[144],f32>, !torch.int -> !torch.vtensor<[144],f32>
    %int6_259 = torch.constant.int 6
    %186 = torch.prims.convert_element_type %arg33, %int6_259 : !torch.vtensor<[144],f32>, !torch.int -> !torch.vtensor<[144],f32>
    %float1.000000e-03_260 = torch.constant.float 1.000000e-03
    %int1_261 = torch.constant.int 1
    %187 = torch.aten.add.Scalar %186, %float1.000000e-03_260, %int1_261 : !torch.vtensor<[144],f32>, !torch.float, !torch.int -> !torch.vtensor<[144],f32>
    %188 = torch.aten.sqrt %187 : !torch.vtensor<[144],f32> -> !torch.vtensor<[144],f32>
    %189 = torch.aten.reciprocal %188 : !torch.vtensor<[144],f32> -> !torch.vtensor<[144],f32>
    %int1_262 = torch.constant.int 1
    %190 = torch.aten.mul.Scalar %189, %int1_262 : !torch.vtensor<[144],f32>, !torch.int -> !torch.vtensor<[144],f32>
    %int0_263 = torch.constant.int 0
    %191 = torch.prim.ListConstruct %int0_263 : (!torch.int) -> !torch.list<int>
    %none_264 = torch.constant.none
    %none_265 = torch.constant.none
    %none_266 = torch.constant.none
    %false_267 = torch.constant.bool false
    %192 = torch.aten.new_zeros %184, %191, %none_264, %none_265, %none_266, %false_267 : !torch.vtensor<[1,144,56,56],f32>, !torch.list<int>, !torch.none, !torch.none, !torch.none, !torch.bool -> !torch.vtensor<[0],f32>
    %int0_268 = torch.constant.int 0
    %193 = torch.prim.ListConstruct %int0_268 : (!torch.int) -> !torch.list<int>
    %none_269 = torch.constant.none
    %none_270 = torch.constant.none
    %none_271 = torch.constant.none
    %false_272 = torch.constant.bool false
    %194 = torch.aten.new_zeros %184, %193, %none_269, %none_270, %none_271, %false_272 : !torch.vtensor<[1,144,56,56],f32>, !torch.list<int>, !torch.none, !torch.none, !torch.none, !torch.bool -> !torch.vtensor<[0],f32>
    %int-1_273 = torch.constant.int -1
    %195 = torch.aten.unsqueeze %185, %int-1_273 : !torch.vtensor<[144],f32>, !torch.int -> !torch.vtensor<[144,1],f32>
    %int-1_274 = torch.constant.int -1
    %196 = torch.aten.unsqueeze %195, %int-1_274 : !torch.vtensor<[144,1],f32>, !torch.int -> !torch.vtensor<[144,1,1],f32>
    %int-1_275 = torch.constant.int -1
    %197 = torch.aten.unsqueeze %190, %int-1_275 : !torch.vtensor<[144],f32>, !torch.int -> !torch.vtensor<[144,1],f32>
    %int-1_276 = torch.constant.int -1
    %198 = torch.aten.unsqueeze %197, %int-1_276 : !torch.vtensor<[144,1],f32>, !torch.int -> !torch.vtensor<[144,1,1],f32>
    %int1_277 = torch.constant.int 1
    %199 = torch.aten.sub.Tensor %184, %196, %int1_277 : !torch.vtensor<[1,144,56,56],f32>, !torch.vtensor<[144,1,1],f32>, !torch.int -> !torch.vtensor<[1,144,56,56],f32>
    %200 = torch.aten.mul.Tensor %199, %198 : !torch.vtensor<[1,144,56,56],f32>, !torch.vtensor<[144,1,1],f32> -> !torch.vtensor<[1,144,56,56],f32>
    %int-1_278 = torch.constant.int -1
    %201 = torch.aten.unsqueeze %arg34, %int-1_278 : !torch.vtensor<[144],f32>, !torch.int -> !torch.vtensor<[144,1],f32>
    %int-1_279 = torch.constant.int -1
    %202 = torch.aten.unsqueeze %201, %int-1_279 : !torch.vtensor<[144,1],f32>, !torch.int -> !torch.vtensor<[144,1,1],f32>
    %203 = torch.aten.mul.Tensor %200, %202 : !torch.vtensor<[1,144,56,56],f32>, !torch.vtensor<[144,1,1],f32> -> !torch.vtensor<[1,144,56,56],f32>
    %int-1_280 = torch.constant.int -1
    %204 = torch.aten.unsqueeze %arg35, %int-1_280 : !torch.vtensor<[144],f32>, !torch.int -> !torch.vtensor<[144,1],f32>
    %int-1_281 = torch.constant.int -1
    %205 = torch.aten.unsqueeze %204, %int-1_281 : !torch.vtensor<[144,1],f32>, !torch.int -> !torch.vtensor<[144,1,1],f32>
    %int1_282 = torch.constant.int 1
    %206 = torch.aten.add.Tensor %203, %205, %int1_282 : !torch.vtensor<[1,144,56,56],f32>, !torch.vtensor<[144,1,1],f32>, !torch.int -> !torch.vtensor<[1,144,56,56],f32>
    %float0.000000e00_283 = torch.constant.float 0.000000e+00
    %float6.000000e00_284 = torch.constant.float 6.000000e+00
    %207 = torch.aten.hardtanh %206, %float0.000000e00_283, %float6.000000e00_284 : !torch.vtensor<[1,144,56,56],f32>, !torch.float, !torch.float -> !torch.vtensor<[1,144,56,56],f32>
    %int1_285 = torch.constant.int 1
    %int1_286 = torch.constant.int 1
    %int1_287 = torch.constant.int 1
    %int1_288 = torch.constant.int 1
    %208 = torch.prim.ListConstruct %int1_285, %int1_286, %int1_287, %int1_288 : (!torch.int, !torch.int, !torch.int, !torch.int) -> !torch.list<int>
    %float0.000000e00_289 = torch.constant.float 0.000000e+00
    %209 = torch.aten.constant_pad_nd %207, %208, %float0.000000e00_289 : !torch.vtensor<[1,144,56,56],f32>, !torch.list<int>, !torch.float -> !torch.vtensor<[1,144,58,58],f32>
    %none_290 = torch.constant.none
    %int1_291 = torch.constant.int 1
    %int1_292 = torch.constant.int 1
    %210 = torch.prim.ListConstruct %int1_291, %int1_292 : (!torch.int, !torch.int) -> !torch.list<int>
    %int0_293 = torch.constant.int 0
    %int0_294 = torch.constant.int 0
    %211 = torch.prim.ListConstruct %int0_293, %int0_294 : (!torch.int, !torch.int) -> !torch.list<int>
    %int1_295 = torch.constant.int 1
    %int1_296 = torch.constant.int 1
    %212 = torch.prim.ListConstruct %int1_295, %int1_296 : (!torch.int, !torch.int) -> !torch.list<int>
    %false_297 = torch.constant.bool false
    %int0_298 = torch.constant.int 0
    %int0_299 = torch.constant.int 0
    %213 = torch.prim.ListConstruct %int0_298, %int0_299 : (!torch.int, !torch.int) -> !torch.list<int>
    %int144 = torch.constant.int 144
    %214 = torch.aten.convolution %209, %arg36, %none_290, %210, %211, %212, %false_297, %213, %int144 : !torch.vtensor<[1,144,58,58],f32>, !torch.vtensor<[144,1,3,3],f32>, !torch.none, !torch.list<int>, !torch.list<int>, !torch.list<int>, !torch.bool, !torch.list<int>, !torch.int -> !torch.vtensor<[1,144,56,56],f32>
    %int6_300 = torch.constant.int 6
    %215 = torch.prims.convert_element_type %arg37, %int6_300 : !torch.vtensor<[144],f32>, !torch.int -> !torch.vtensor<[144],f32>
    %int6_301 = torch.constant.int 6
    %216 = torch.prims.convert_element_type %arg38, %int6_301 : !torch.vtensor<[144],f32>, !torch.int -> !torch.vtensor<[144],f32>
    %float1.000000e-03_302 = torch.constant.float 1.000000e-03
    %int1_303 = torch.constant.int 1
    %217 = torch.aten.add.Scalar %216, %float1.000000e-03_302, %int1_303 : !torch.vtensor<[144],f32>, !torch.float, !torch.int -> !torch.vtensor<[144],f32>
    %218 = torch.aten.sqrt %217 : !torch.vtensor<[144],f32> -> !torch.vtensor<[144],f32>
    %219 = torch.aten.reciprocal %218 : !torch.vtensor<[144],f32> -> !torch.vtensor<[144],f32>
    %int1_304 = torch.constant.int 1
    %220 = torch.aten.mul.Scalar %219, %int1_304 : !torch.vtensor<[144],f32>, !torch.int -> !torch.vtensor<[144],f32>
    %int0_305 = torch.constant.int 0
    %221 = torch.prim.ListConstruct %int0_305 : (!torch.int) -> !torch.list<int>
    %none_306 = torch.constant.none
    %none_307 = torch.constant.none
    %none_308 = torch.constant.none
    %false_309 = torch.constant.bool false
    %222 = torch.aten.new_zeros %214, %221, %none_306, %none_307, %none_308, %false_309 : !torch.vtensor<[1,144,56,56],f32>, !torch.list<int>, !torch.none, !torch.none, !torch.none, !torch.bool -> !torch.vtensor<[0],f32>
    %int0_310 = torch.constant.int 0
    %223 = torch.prim.ListConstruct %int0_310 : (!torch.int) -> !torch.list<int>
    %none_311 = torch.constant.none
    %none_312 = torch.constant.none
    %none_313 = torch.constant.none
    %false_314 = torch.constant.bool false
    %224 = torch.aten.new_zeros %214, %223, %none_311, %none_312, %none_313, %false_314 : !torch.vtensor<[1,144,56,56],f32>, !torch.list<int>, !torch.none, !torch.none, !torch.none, !torch.bool -> !torch.vtensor<[0],f32>
    %int-1_315 = torch.constant.int -1
    %225 = torch.aten.unsqueeze %215, %int-1_315 : !torch.vtensor<[144],f32>, !torch.int -> !torch.vtensor<[144,1],f32>
    %int-1_316 = torch.constant.int -1
    %226 = torch.aten.unsqueeze %225, %int-1_316 : !torch.vtensor<[144,1],f32>, !torch.int -> !torch.vtensor<[144,1,1],f32>
    %int-1_317 = torch.constant.int -1
    %227 = torch.aten.unsqueeze %220, %int-1_317 : !torch.vtensor<[144],f32>, !torch.int -> !torch.vtensor<[144,1],f32>
    %int-1_318 = torch.constant.int -1
    %228 = torch.aten.unsqueeze %227, %int-1_318 : !torch.vtensor<[144,1],f32>, !torch.int -> !torch.vtensor<[144,1,1],f32>
    %int1_319 = torch.constant.int 1
    %229 = torch.aten.sub.Tensor %214, %226, %int1_319 : !torch.vtensor<[1,144,56,56],f32>, !torch.vtensor<[144,1,1],f32>, !torch.int -> !torch.vtensor<[1,144,56,56],f32>
    %230 = torch.aten.mul.Tensor %229, %228 : !torch.vtensor<[1,144,56,56],f32>, !torch.vtensor<[144,1,1],f32> -> !torch.vtensor<[1,144,56,56],f32>
    %int-1_320 = torch.constant.int -1
    %231 = torch.aten.unsqueeze %arg39, %int-1_320 : !torch.vtensor<[144],f32>, !torch.int -> !torch.vtensor<[144,1],f32>
    %int-1_321 = torch.constant.int -1
    %232 = torch.aten.unsqueeze %231, %int-1_321 : !torch.vtensor<[144,1],f32>, !torch.int -> !torch.vtensor<[144,1,1],f32>
    %233 = torch.aten.mul.Tensor %230, %232 : !torch.vtensor<[1,144,56,56],f32>, !torch.vtensor<[144,1,1],f32> -> !torch.vtensor<[1,144,56,56],f32>
    %int-1_322 = torch.constant.int -1
    %234 = torch.aten.unsqueeze %arg40, %int-1_322 : !torch.vtensor<[144],f32>, !torch.int -> !torch.vtensor<[144,1],f32>
    %int-1_323 = torch.constant.int -1
    %235 = torch.aten.unsqueeze %234, %int-1_323 : !torch.vtensor<[144,1],f32>, !torch.int -> !torch.vtensor<[144,1,1],f32>
    %int1_324 = torch.constant.int 1
    %236 = torch.aten.add.Tensor %233, %235, %int1_324 : !torch.vtensor<[1,144,56,56],f32>, !torch.vtensor<[144,1,1],f32>, !torch.int -> !torch.vtensor<[1,144,56,56],f32>
    %float0.000000e00_325 = torch.constant.float 0.000000e+00
    %float6.000000e00_326 = torch.constant.float 6.000000e+00
    %237 = torch.aten.hardtanh %236, %float0.000000e00_325, %float6.000000e00_326 : !torch.vtensor<[1,144,56,56],f32>, !torch.float, !torch.float -> !torch.vtensor<[1,144,56,56],f32>
    %int0_327 = torch.constant.int 0
    %int0_328 = torch.constant.int 0
    %int0_329 = torch.constant.int 0
    %int0_330 = torch.constant.int 0
    %238 = torch.prim.ListConstruct %int0_327, %int0_328, %int0_329, %int0_330 : (!torch.int, !torch.int, !torch.int, !torch.int) -> !torch.list<int>
    %float0.000000e00_331 = torch.constant.float 0.000000e+00
    %239 = torch.aten.constant_pad_nd %237, %238, %float0.000000e00_331 : !torch.vtensor<[1,144,56,56],f32>, !torch.list<int>, !torch.float -> !torch.vtensor<[1,144,56,56],f32>
    %none_332 = torch.constant.none
    %int1_333 = torch.constant.int 1
    %int1_334 = torch.constant.int 1
    %240 = torch.prim.ListConstruct %int1_333, %int1_334 : (!torch.int, !torch.int) -> !torch.list<int>
    %int0_335 = torch.constant.int 0
    %int0_336 = torch.constant.int 0
    %241 = torch.prim.ListConstruct %int0_335, %int0_336 : (!torch.int, !torch.int) -> !torch.list<int>
    %int1_337 = torch.constant.int 1
    %int1_338 = torch.constant.int 1
    %242 = torch.prim.ListConstruct %int1_337, %int1_338 : (!torch.int, !torch.int) -> !torch.list<int>
    %false_339 = torch.constant.bool false
    %int0_340 = torch.constant.int 0
    %int0_341 = torch.constant.int 0
    %243 = torch.prim.ListConstruct %int0_340, %int0_341 : (!torch.int, !torch.int) -> !torch.list<int>
    %int1_342 = torch.constant.int 1
    %244 = torch.aten.convolution %239, %arg41, %none_332, %240, %241, %242, %false_339, %243, %int1_342 : !torch.vtensor<[1,144,56,56],f32>, !torch.vtensor<[24,144,1,1],f32>, !torch.none, !torch.list<int>, !torch.list<int>, !torch.list<int>, !torch.bool, !torch.list<int>, !torch.int -> !torch.vtensor<[1,24,56,56],f32>
    %int6_343 = torch.constant.int 6
    %245 = torch.prims.convert_element_type %arg42, %int6_343 : !torch.vtensor<[24],f32>, !torch.int -> !torch.vtensor<[24],f32>
    %int6_344 = torch.constant.int 6
    %246 = torch.prims.convert_element_type %arg43, %int6_344 : !torch.vtensor<[24],f32>, !torch.int -> !torch.vtensor<[24],f32>
    %float1.000000e-03_345 = torch.constant.float 1.000000e-03
    %int1_346 = torch.constant.int 1
    %247 = torch.aten.add.Scalar %246, %float1.000000e-03_345, %int1_346 : !torch.vtensor<[24],f32>, !torch.float, !torch.int -> !torch.vtensor<[24],f32>
    %248 = torch.aten.sqrt %247 : !torch.vtensor<[24],f32> -> !torch.vtensor<[24],f32>
    %249 = torch.aten.reciprocal %248 : !torch.vtensor<[24],f32> -> !torch.vtensor<[24],f32>
    %int1_347 = torch.constant.int 1
    %250 = torch.aten.mul.Scalar %249, %int1_347 : !torch.vtensor<[24],f32>, !torch.int -> !torch.vtensor<[24],f32>
    %int0_348 = torch.constant.int 0
    %251 = torch.prim.ListConstruct %int0_348 : (!torch.int) -> !torch.list<int>
    %none_349 = torch.constant.none
    %none_350 = torch.constant.none
    %none_351 = torch.constant.none
    %false_352 = torch.constant.bool false
    %252 = torch.aten.new_zeros %244, %251, %none_349, %none_350, %none_351, %false_352 : !torch.vtensor<[1,24,56,56],f32>, !torch.list<int>, !torch.none, !torch.none, !torch.none, !torch.bool -> !torch.vtensor<[0],f32>
    %int0_353 = torch.constant.int 0
    %253 = torch.prim.ListConstruct %int0_353 : (!torch.int) -> !torch.list<int>
    %none_354 = torch.constant.none
    %none_355 = torch.constant.none
    %none_356 = torch.constant.none
    %false_357 = torch.constant.bool false
    %254 = torch.aten.new_zeros %244, %253, %none_354, %none_355, %none_356, %false_357 : !torch.vtensor<[1,24,56,56],f32>, !torch.list<int>, !torch.none, !torch.none, !torch.none, !torch.bool -> !torch.vtensor<[0],f32>
    %int-1_358 = torch.constant.int -1
    %255 = torch.aten.unsqueeze %245, %int-1_358 : !torch.vtensor<[24],f32>, !torch.int -> !torch.vtensor<[24,1],f32>
    %int-1_359 = torch.constant.int -1
    %256 = torch.aten.unsqueeze %255, %int-1_359 : !torch.vtensor<[24,1],f32>, !torch.int -> !torch.vtensor<[24,1,1],f32>
    %int-1_360 = torch.constant.int -1
    %257 = torch.aten.unsqueeze %250, %int-1_360 : !torch.vtensor<[24],f32>, !torch.int -> !torch.vtensor<[24,1],f32>
    %int-1_361 = torch.constant.int -1
    %258 = torch.aten.unsqueeze %257, %int-1_361 : !torch.vtensor<[24,1],f32>, !torch.int -> !torch.vtensor<[24,1,1],f32>
    %int1_362 = torch.constant.int 1
    %259 = torch.aten.sub.Tensor %244, %256, %int1_362 : !torch.vtensor<[1,24,56,56],f32>, !torch.vtensor<[24,1,1],f32>, !torch.int -> !torch.vtensor<[1,24,56,56],f32>
    %260 = torch.aten.mul.Tensor %259, %258 : !torch.vtensor<[1,24,56,56],f32>, !torch.vtensor<[24,1,1],f32> -> !torch.vtensor<[1,24,56,56],f32>
    %int-1_363 = torch.constant.int -1
    %261 = torch.aten.unsqueeze %arg44, %int-1_363 : !torch.vtensor<[24],f32>, !torch.int -> !torch.vtensor<[24,1],f32>
    %int-1_364 = torch.constant.int -1
    %262 = torch.aten.unsqueeze %261, %int-1_364 : !torch.vtensor<[24,1],f32>, !torch.int -> !torch.vtensor<[24,1,1],f32>
    %263 = torch.aten.mul.Tensor %260, %262 : !torch.vtensor<[1,24,56,56],f32>, !torch.vtensor<[24,1,1],f32> -> !torch.vtensor<[1,24,56,56],f32>
    %int-1_365 = torch.constant.int -1
    %264 = torch.aten.unsqueeze %arg45, %int-1_365 : !torch.vtensor<[24],f32>, !torch.int -> !torch.vtensor<[24,1],f32>
    %int-1_366 = torch.constant.int -1
    %265 = torch.aten.unsqueeze %264, %int-1_366 : !torch.vtensor<[24,1],f32>, !torch.int -> !torch.vtensor<[24,1,1],f32>
    %int1_367 = torch.constant.int 1
    %266 = torch.aten.add.Tensor %263, %265, %int1_367 : !torch.vtensor<[1,24,56,56],f32>, !torch.vtensor<[24,1,1],f32>, !torch.int -> !torch.vtensor<[1,24,56,56],f32>
    %int1_368 = torch.constant.int 1
    %267 = torch.aten.add.Tensor %177, %266, %int1_368 : !torch.vtensor<[1,24,56,56],f32>, !torch.vtensor<[1,24,56,56],f32>, !torch.int -> !torch.vtensor<[1,24,56,56],f32>
    %int0_369 = torch.constant.int 0
    %int0_370 = torch.constant.int 0
    %int0_371 = torch.constant.int 0
    %int0_372 = torch.constant.int 0
    %268 = torch.prim.ListConstruct %int0_369, %int0_370, %int0_371, %int0_372 : (!torch.int, !torch.int, !torch.int, !torch.int) -> !torch.list<int>
    %float0.000000e00_373 = torch.constant.float 0.000000e+00
    %269 = torch.aten.constant_pad_nd %267, %268, %float0.000000e00_373 : !torch.vtensor<[1,24,56,56],f32>, !torch.list<int>, !torch.float -> !torch.vtensor<[1,24,56,56],f32>
    %none_374 = torch.constant.none
    %int1_375 = torch.constant.int 1
    %int1_376 = torch.constant.int 1
    %270 = torch.prim.ListConstruct %int1_375, %int1_376 : (!torch.int, !torch.int) -> !torch.list<int>
    %int0_377 = torch.constant.int 0
    %int0_378 = torch.constant.int 0
    %271 = torch.prim.ListConstruct %int0_377, %int0_378 : (!torch.int, !torch.int) -> !torch.list<int>
    %int1_379 = torch.constant.int 1
    %int1_380 = torch.constant.int 1
    %272 = torch.prim.ListConstruct %int1_379, %int1_380 : (!torch.int, !torch.int) -> !torch.list<int>
    %false_381 = torch.constant.bool false
    %int0_382 = torch.constant.int 0
    %int0_383 = torch.constant.int 0
    %273 = torch.prim.ListConstruct %int0_382, %int0_383 : (!torch.int, !torch.int) -> !torch.list<int>
    %int1_384 = torch.constant.int 1
    %274 = torch.aten.convolution %269, %arg46, %none_374, %270, %271, %272, %false_381, %273, %int1_384 : !torch.vtensor<[1,24,56,56],f32>, !torch.vtensor<[144,24,1,1],f32>, !torch.none, !torch.list<int>, !torch.list<int>, !torch.list<int>, !torch.bool, !torch.list<int>, !torch.int -> !torch.vtensor<[1,144,56,56],f32>
    %int6_385 = torch.constant.int 6
    %275 = torch.prims.convert_element_type %arg47, %int6_385 : !torch.vtensor<[144],f32>, !torch.int -> !torch.vtensor<[144],f32>
    %int6_386 = torch.constant.int 6
    %276 = torch.prims.convert_element_type %arg48, %int6_386 : !torch.vtensor<[144],f32>, !torch.int -> !torch.vtensor<[144],f32>
    %float1.000000e-03_387 = torch.constant.float 1.000000e-03
    %int1_388 = torch.constant.int 1
    %277 = torch.aten.add.Scalar %276, %float1.000000e-03_387, %int1_388 : !torch.vtensor<[144],f32>, !torch.float, !torch.int -> !torch.vtensor<[144],f32>
    %278 = torch.aten.sqrt %277 : !torch.vtensor<[144],f32> -> !torch.vtensor<[144],f32>
    %279 = torch.aten.reciprocal %278 : !torch.vtensor<[144],f32> -> !torch.vtensor<[144],f32>
    %int1_389 = torch.constant.int 1
    %280 = torch.aten.mul.Scalar %279, %int1_389 : !torch.vtensor<[144],f32>, !torch.int -> !torch.vtensor<[144],f32>
    %int0_390 = torch.constant.int 0
    %281 = torch.prim.ListConstruct %int0_390 : (!torch.int) -> !torch.list<int>
    %none_391 = torch.constant.none
    %none_392 = torch.constant.none
    %none_393 = torch.constant.none
    %false_394 = torch.constant.bool false
    %282 = torch.aten.new_zeros %274, %281, %none_391, %none_392, %none_393, %false_394 : !torch.vtensor<[1,144,56,56],f32>, !torch.list<int>, !torch.none, !torch.none, !torch.none, !torch.bool -> !torch.vtensor<[0],f32>
    %int0_395 = torch.constant.int 0
    %283 = torch.prim.ListConstruct %int0_395 : (!torch.int) -> !torch.list<int>
    %none_396 = torch.constant.none
    %none_397 = torch.constant.none
    %none_398 = torch.constant.none
    %false_399 = torch.constant.bool false
    %284 = torch.aten.new_zeros %274, %283, %none_396, %none_397, %none_398, %false_399 : !torch.vtensor<[1,144,56,56],f32>, !torch.list<int>, !torch.none, !torch.none, !torch.none, !torch.bool -> !torch.vtensor<[0],f32>
    %int-1_400 = torch.constant.int -1
    %285 = torch.aten.unsqueeze %275, %int-1_400 : !torch.vtensor<[144],f32>, !torch.int -> !torch.vtensor<[144,1],f32>
    %int-1_401 = torch.constant.int -1
    %286 = torch.aten.unsqueeze %285, %int-1_401 : !torch.vtensor<[144,1],f32>, !torch.int -> !torch.vtensor<[144,1,1],f32>
    %int-1_402 = torch.constant.int -1
    %287 = torch.aten.unsqueeze %280, %int-1_402 : !torch.vtensor<[144],f32>, !torch.int -> !torch.vtensor<[144,1],f32>
    %int-1_403 = torch.constant.int -1
    %288 = torch.aten.unsqueeze %287, %int-1_403 : !torch.vtensor<[144,1],f32>, !torch.int -> !torch.vtensor<[144,1,1],f32>
    %int1_404 = torch.constant.int 1
    %289 = torch.aten.sub.Tensor %274, %286, %int1_404 : !torch.vtensor<[1,144,56,56],f32>, !torch.vtensor<[144,1,1],f32>, !torch.int -> !torch.vtensor<[1,144,56,56],f32>
    %290 = torch.aten.mul.Tensor %289, %288 : !torch.vtensor<[1,144,56,56],f32>, !torch.vtensor<[144,1,1],f32> -> !torch.vtensor<[1,144,56,56],f32>
    %int-1_405 = torch.constant.int -1
    %291 = torch.aten.unsqueeze %arg49, %int-1_405 : !torch.vtensor<[144],f32>, !torch.int -> !torch.vtensor<[144,1],f32>
    %int-1_406 = torch.constant.int -1
    %292 = torch.aten.unsqueeze %291, %int-1_406 : !torch.vtensor<[144,1],f32>, !torch.int -> !torch.vtensor<[144,1,1],f32>
    %293 = torch.aten.mul.Tensor %290, %292 : !torch.vtensor<[1,144,56,56],f32>, !torch.vtensor<[144,1,1],f32> -> !torch.vtensor<[1,144,56,56],f32>
    %int-1_407 = torch.constant.int -1
    %294 = torch.aten.unsqueeze %arg50, %int-1_407 : !torch.vtensor<[144],f32>, !torch.int -> !torch.vtensor<[144,1],f32>
    %int-1_408 = torch.constant.int -1
    %295 = torch.aten.unsqueeze %294, %int-1_408 : !torch.vtensor<[144,1],f32>, !torch.int -> !torch.vtensor<[144,1,1],f32>
    %int1_409 = torch.constant.int 1
    %296 = torch.aten.add.Tensor %293, %295, %int1_409 : !torch.vtensor<[1,144,56,56],f32>, !torch.vtensor<[144,1,1],f32>, !torch.int -> !torch.vtensor<[1,144,56,56],f32>
    %float0.000000e00_410 = torch.constant.float 0.000000e+00
    %float6.000000e00_411 = torch.constant.float 6.000000e+00
    %297 = torch.aten.hardtanh %296, %float0.000000e00_410, %float6.000000e00_411 : !torch.vtensor<[1,144,56,56],f32>, !torch.float, !torch.float -> !torch.vtensor<[1,144,56,56],f32>
    %int0_412 = torch.constant.int 0
    %int1_413 = torch.constant.int 1
    %int0_414 = torch.constant.int 0
    %int1_415 = torch.constant.int 1
    %298 = torch.prim.ListConstruct %int0_412, %int1_413, %int0_414, %int1_415 : (!torch.int, !torch.int, !torch.int, !torch.int) -> !torch.list<int>
    %float0.000000e00_416 = torch.constant.float 0.000000e+00
    %299 = torch.aten.constant_pad_nd %297, %298, %float0.000000e00_416 : !torch.vtensor<[1,144,56,56],f32>, !torch.list<int>, !torch.float -> !torch.vtensor<[1,144,57,57],f32>
    %none_417 = torch.constant.none
    %int2_418 = torch.constant.int 2
    %int2_419 = torch.constant.int 2
    %300 = torch.prim.ListConstruct %int2_418, %int2_419 : (!torch.int, !torch.int) -> !torch.list<int>
    %int0_420 = torch.constant.int 0
    %int0_421 = torch.constant.int 0
    %301 = torch.prim.ListConstruct %int0_420, %int0_421 : (!torch.int, !torch.int) -> !torch.list<int>
    %int1_422 = torch.constant.int 1
    %int1_423 = torch.constant.int 1
    %302 = torch.prim.ListConstruct %int1_422, %int1_423 : (!torch.int, !torch.int) -> !torch.list<int>
    %false_424 = torch.constant.bool false
    %int0_425 = torch.constant.int 0
    %int0_426 = torch.constant.int 0
    %303 = torch.prim.ListConstruct %int0_425, %int0_426 : (!torch.int, !torch.int) -> !torch.list<int>
    %int144_427 = torch.constant.int 144
    %304 = torch.aten.convolution %299, %arg51, %none_417, %300, %301, %302, %false_424, %303, %int144_427 : !torch.vtensor<[1,144,57,57],f32>, !torch.vtensor<[144,1,3,3],f32>, !torch.none, !torch.list<int>, !torch.list<int>, !torch.list<int>, !torch.bool, !torch.list<int>, !torch.int -> !torch.vtensor<[1,144,28,28],f32>
    %int6_428 = torch.constant.int 6
    %305 = torch.prims.convert_element_type %arg52, %int6_428 : !torch.vtensor<[144],f32>, !torch.int -> !torch.vtensor<[144],f32>
    %int6_429 = torch.constant.int 6
    %306 = torch.prims.convert_element_type %arg53, %int6_429 : !torch.vtensor<[144],f32>, !torch.int -> !torch.vtensor<[144],f32>
    %float1.000000e-03_430 = torch.constant.float 1.000000e-03
    %int1_431 = torch.constant.int 1
    %307 = torch.aten.add.Scalar %306, %float1.000000e-03_430, %int1_431 : !torch.vtensor<[144],f32>, !torch.float, !torch.int -> !torch.vtensor<[144],f32>
    %308 = torch.aten.sqrt %307 : !torch.vtensor<[144],f32> -> !torch.vtensor<[144],f32>
    %309 = torch.aten.reciprocal %308 : !torch.vtensor<[144],f32> -> !torch.vtensor<[144],f32>
    %int1_432 = torch.constant.int 1
    %310 = torch.aten.mul.Scalar %309, %int1_432 : !torch.vtensor<[144],f32>, !torch.int -> !torch.vtensor<[144],f32>
    %int0_433 = torch.constant.int 0
    %311 = torch.prim.ListConstruct %int0_433 : (!torch.int) -> !torch.list<int>
    %none_434 = torch.constant.none
    %none_435 = torch.constant.none
    %none_436 = torch.constant.none
    %false_437 = torch.constant.bool false
    %312 = torch.aten.new_zeros %304, %311, %none_434, %none_435, %none_436, %false_437 : !torch.vtensor<[1,144,28,28],f32>, !torch.list<int>, !torch.none, !torch.none, !torch.none, !torch.bool -> !torch.vtensor<[0],f32>
    %int0_438 = torch.constant.int 0
    %313 = torch.prim.ListConstruct %int0_438 : (!torch.int) -> !torch.list<int>
    %none_439 = torch.constant.none
    %none_440 = torch.constant.none
    %none_441 = torch.constant.none
    %false_442 = torch.constant.bool false
    %314 = torch.aten.new_zeros %304, %313, %none_439, %none_440, %none_441, %false_442 : !torch.vtensor<[1,144,28,28],f32>, !torch.list<int>, !torch.none, !torch.none, !torch.none, !torch.bool -> !torch.vtensor<[0],f32>
    %int-1_443 = torch.constant.int -1
    %315 = torch.aten.unsqueeze %305, %int-1_443 : !torch.vtensor<[144],f32>, !torch.int -> !torch.vtensor<[144,1],f32>
    %int-1_444 = torch.constant.int -1
    %316 = torch.aten.unsqueeze %315, %int-1_444 : !torch.vtensor<[144,1],f32>, !torch.int -> !torch.vtensor<[144,1,1],f32>
    %int-1_445 = torch.constant.int -1
    %317 = torch.aten.unsqueeze %310, %int-1_445 : !torch.vtensor<[144],f32>, !torch.int -> !torch.vtensor<[144,1],f32>
    %int-1_446 = torch.constant.int -1
    %318 = torch.aten.unsqueeze %317, %int-1_446 : !torch.vtensor<[144,1],f32>, !torch.int -> !torch.vtensor<[144,1,1],f32>
    %int1_447 = torch.constant.int 1
    %319 = torch.aten.sub.Tensor %304, %316, %int1_447 : !torch.vtensor<[1,144,28,28],f32>, !torch.vtensor<[144,1,1],f32>, !torch.int -> !torch.vtensor<[1,144,28,28],f32>
    %320 = torch.aten.mul.Tensor %319, %318 : !torch.vtensor<[1,144,28,28],f32>, !torch.vtensor<[144,1,1],f32> -> !torch.vtensor<[1,144,28,28],f32>
    %int-1_448 = torch.constant.int -1
    %321 = torch.aten.unsqueeze %arg54, %int-1_448 : !torch.vtensor<[144],f32>, !torch.int -> !torch.vtensor<[144,1],f32>
    %int-1_449 = torch.constant.int -1
    %322 = torch.aten.unsqueeze %321, %int-1_449 : !torch.vtensor<[144,1],f32>, !torch.int -> !torch.vtensor<[144,1,1],f32>
    %323 = torch.aten.mul.Tensor %320, %322 : !torch.vtensor<[1,144,28,28],f32>, !torch.vtensor<[144,1,1],f32> -> !torch.vtensor<[1,144,28,28],f32>
    %int-1_450 = torch.constant.int -1
    %324 = torch.aten.unsqueeze %arg55, %int-1_450 : !torch.vtensor<[144],f32>, !torch.int -> !torch.vtensor<[144,1],f32>
    %int-1_451 = torch.constant.int -1
    %325 = torch.aten.unsqueeze %324, %int-1_451 : !torch.vtensor<[144,1],f32>, !torch.int -> !torch.vtensor<[144,1,1],f32>
    %int1_452 = torch.constant.int 1
    %326 = torch.aten.add.Tensor %323, %325, %int1_452 : !torch.vtensor<[1,144,28,28],f32>, !torch.vtensor<[144,1,1],f32>, !torch.int -> !torch.vtensor<[1,144,28,28],f32>
    %float0.000000e00_453 = torch.constant.float 0.000000e+00
    %float6.000000e00_454 = torch.constant.float 6.000000e+00
    %327 = torch.aten.hardtanh %326, %float0.000000e00_453, %float6.000000e00_454 : !torch.vtensor<[1,144,28,28],f32>, !torch.float, !torch.float -> !torch.vtensor<[1,144,28,28],f32>
    %int0_455 = torch.constant.int 0
    %int0_456 = torch.constant.int 0
    %int0_457 = torch.constant.int 0
    %int0_458 = torch.constant.int 0
    %328 = torch.prim.ListConstruct %int0_455, %int0_456, %int0_457, %int0_458 : (!torch.int, !torch.int, !torch.int, !torch.int) -> !torch.list<int>
    %float0.000000e00_459 = torch.constant.float 0.000000e+00
    %329 = torch.aten.constant_pad_nd %327, %328, %float0.000000e00_459 : !torch.vtensor<[1,144,28,28],f32>, !torch.list<int>, !torch.float -> !torch.vtensor<[1,144,28,28],f32>
    %none_460 = torch.constant.none
    %int1_461 = torch.constant.int 1
    %int1_462 = torch.constant.int 1
    %330 = torch.prim.ListConstruct %int1_461, %int1_462 : (!torch.int, !torch.int) -> !torch.list<int>
    %int0_463 = torch.constant.int 0
    %int0_464 = torch.constant.int 0
    %331 = torch.prim.ListConstruct %int0_463, %int0_464 : (!torch.int, !torch.int) -> !torch.list<int>
    %int1_465 = torch.constant.int 1
    %int1_466 = torch.constant.int 1
    %332 = torch.prim.ListConstruct %int1_465, %int1_466 : (!torch.int, !torch.int) -> !torch.list<int>
    %false_467 = torch.constant.bool false
    %int0_468 = torch.constant.int 0
    %int0_469 = torch.constant.int 0
    %333 = torch.prim.ListConstruct %int0_468, %int0_469 : (!torch.int, !torch.int) -> !torch.list<int>
    %int1_470 = torch.constant.int 1
    %334 = torch.aten.convolution %329, %arg56, %none_460, %330, %331, %332, %false_467, %333, %int1_470 : !torch.vtensor<[1,144,28,28],f32>, !torch.vtensor<[32,144,1,1],f32>, !torch.none, !torch.list<int>, !torch.list<int>, !torch.list<int>, !torch.bool, !torch.list<int>, !torch.int -> !torch.vtensor<[1,32,28,28],f32>
    %int6_471 = torch.constant.int 6
    %335 = torch.prims.convert_element_type %arg57, %int6_471 : !torch.vtensor<[32],f32>, !torch.int -> !torch.vtensor<[32],f32>
    %int6_472 = torch.constant.int 6
    %336 = torch.prims.convert_element_type %arg58, %int6_472 : !torch.vtensor<[32],f32>, !torch.int -> !torch.vtensor<[32],f32>
    %float1.000000e-03_473 = torch.constant.float 1.000000e-03
    %int1_474 = torch.constant.int 1
    %337 = torch.aten.add.Scalar %336, %float1.000000e-03_473, %int1_474 : !torch.vtensor<[32],f32>, !torch.float, !torch.int -> !torch.vtensor<[32],f32>
    %338 = torch.aten.sqrt %337 : !torch.vtensor<[32],f32> -> !torch.vtensor<[32],f32>
    %339 = torch.aten.reciprocal %338 : !torch.vtensor<[32],f32> -> !torch.vtensor<[32],f32>
    %int1_475 = torch.constant.int 1
    %340 = torch.aten.mul.Scalar %339, %int1_475 : !torch.vtensor<[32],f32>, !torch.int -> !torch.vtensor<[32],f32>
    %int0_476 = torch.constant.int 0
    %341 = torch.prim.ListConstruct %int0_476 : (!torch.int) -> !torch.list<int>
    %none_477 = torch.constant.none
    %none_478 = torch.constant.none
    %none_479 = torch.constant.none
    %false_480 = torch.constant.bool false
    %342 = torch.aten.new_zeros %334, %341, %none_477, %none_478, %none_479, %false_480 : !torch.vtensor<[1,32,28,28],f32>, !torch.list<int>, !torch.none, !torch.none, !torch.none, !torch.bool -> !torch.vtensor<[0],f32>
    %int0_481 = torch.constant.int 0
    %343 = torch.prim.ListConstruct %int0_481 : (!torch.int) -> !torch.list<int>
    %none_482 = torch.constant.none
    %none_483 = torch.constant.none
    %none_484 = torch.constant.none
    %false_485 = torch.constant.bool false
    %344 = torch.aten.new_zeros %334, %343, %none_482, %none_483, %none_484, %false_485 : !torch.vtensor<[1,32,28,28],f32>, !torch.list<int>, !torch.none, !torch.none, !torch.none, !torch.bool -> !torch.vtensor<[0],f32>
    %int-1_486 = torch.constant.int -1
    %345 = torch.aten.unsqueeze %335, %int-1_486 : !torch.vtensor<[32],f32>, !torch.int -> !torch.vtensor<[32,1],f32>
    %int-1_487 = torch.constant.int -1
    %346 = torch.aten.unsqueeze %345, %int-1_487 : !torch.vtensor<[32,1],f32>, !torch.int -> !torch.vtensor<[32,1,1],f32>
    %int-1_488 = torch.constant.int -1
    %347 = torch.aten.unsqueeze %340, %int-1_488 : !torch.vtensor<[32],f32>, !torch.int -> !torch.vtensor<[32,1],f32>
    %int-1_489 = torch.constant.int -1
    %348 = torch.aten.unsqueeze %347, %int-1_489 : !torch.vtensor<[32,1],f32>, !torch.int -> !torch.vtensor<[32,1,1],f32>
    %int1_490 = torch.constant.int 1
    %349 = torch.aten.sub.Tensor %334, %346, %int1_490 : !torch.vtensor<[1,32,28,28],f32>, !torch.vtensor<[32,1,1],f32>, !torch.int -> !torch.vtensor<[1,32,28,28],f32>
    %350 = torch.aten.mul.Tensor %349, %348 : !torch.vtensor<[1,32,28,28],f32>, !torch.vtensor<[32,1,1],f32> -> !torch.vtensor<[1,32,28,28],f32>
    %int-1_491 = torch.constant.int -1
    %351 = torch.aten.unsqueeze %arg59, %int-1_491 : !torch.vtensor<[32],f32>, !torch.int -> !torch.vtensor<[32,1],f32>
    %int-1_492 = torch.constant.int -1
    %352 = torch.aten.unsqueeze %351, %int-1_492 : !torch.vtensor<[32,1],f32>, !torch.int -> !torch.vtensor<[32,1,1],f32>
    %353 = torch.aten.mul.Tensor %350, %352 : !torch.vtensor<[1,32,28,28],f32>, !torch.vtensor<[32,1,1],f32> -> !torch.vtensor<[1,32,28,28],f32>
    %int-1_493 = torch.constant.int -1
    %354 = torch.aten.unsqueeze %arg60, %int-1_493 : !torch.vtensor<[32],f32>, !torch.int -> !torch.vtensor<[32,1],f32>
    %int-1_494 = torch.constant.int -1
    %355 = torch.aten.unsqueeze %354, %int-1_494 : !torch.vtensor<[32,1],f32>, !torch.int -> !torch.vtensor<[32,1,1],f32>
    %int1_495 = torch.constant.int 1
    %356 = torch.aten.add.Tensor %353, %355, %int1_495 : !torch.vtensor<[1,32,28,28],f32>, !torch.vtensor<[32,1,1],f32>, !torch.int -> !torch.vtensor<[1,32,28,28],f32>
    %int0_496 = torch.constant.int 0
    %int0_497 = torch.constant.int 0
    %int0_498 = torch.constant.int 0
    %int0_499 = torch.constant.int 0
    %357 = torch.prim.ListConstruct %int0_496, %int0_497, %int0_498, %int0_499 : (!torch.int, !torch.int, !torch.int, !torch.int) -> !torch.list<int>
    %float0.000000e00_500 = torch.constant.float 0.000000e+00
    %358 = torch.aten.constant_pad_nd %356, %357, %float0.000000e00_500 : !torch.vtensor<[1,32,28,28],f32>, !torch.list<int>, !torch.float -> !torch.vtensor<[1,32,28,28],f32>
    %none_501 = torch.constant.none
    %int1_502 = torch.constant.int 1
    %int1_503 = torch.constant.int 1
    %359 = torch.prim.ListConstruct %int1_502, %int1_503 : (!torch.int, !torch.int) -> !torch.list<int>
    %int0_504 = torch.constant.int 0
    %int0_505 = torch.constant.int 0
    %360 = torch.prim.ListConstruct %int0_504, %int0_505 : (!torch.int, !torch.int) -> !torch.list<int>
    %int1_506 = torch.constant.int 1
    %int1_507 = torch.constant.int 1
    %361 = torch.prim.ListConstruct %int1_506, %int1_507 : (!torch.int, !torch.int) -> !torch.list<int>
    %false_508 = torch.constant.bool false
    %int0_509 = torch.constant.int 0
    %int0_510 = torch.constant.int 0
    %362 = torch.prim.ListConstruct %int0_509, %int0_510 : (!torch.int, !torch.int) -> !torch.list<int>
    %int1_511 = torch.constant.int 1
    %363 = torch.aten.convolution %358, %arg61, %none_501, %359, %360, %361, %false_508, %362, %int1_511 : !torch.vtensor<[1,32,28,28],f32>, !torch.vtensor<[192,32,1,1],f32>, !torch.none, !torch.list<int>, !torch.list<int>, !torch.list<int>, !torch.bool, !torch.list<int>, !torch.int -> !torch.vtensor<[1,192,28,28],f32>
    %int6_512 = torch.constant.int 6
    %364 = torch.prims.convert_element_type %arg62, %int6_512 : !torch.vtensor<[192],f32>, !torch.int -> !torch.vtensor<[192],f32>
    %int6_513 = torch.constant.int 6
    %365 = torch.prims.convert_element_type %arg63, %int6_513 : !torch.vtensor<[192],f32>, !torch.int -> !torch.vtensor<[192],f32>
    %float1.000000e-03_514 = torch.constant.float 1.000000e-03
    %int1_515 = torch.constant.int 1
    %366 = torch.aten.add.Scalar %365, %float1.000000e-03_514, %int1_515 : !torch.vtensor<[192],f32>, !torch.float, !torch.int -> !torch.vtensor<[192],f32>
    %367 = torch.aten.sqrt %366 : !torch.vtensor<[192],f32> -> !torch.vtensor<[192],f32>
    %368 = torch.aten.reciprocal %367 : !torch.vtensor<[192],f32> -> !torch.vtensor<[192],f32>
    %int1_516 = torch.constant.int 1
    %369 = torch.aten.mul.Scalar %368, %int1_516 : !torch.vtensor<[192],f32>, !torch.int -> !torch.vtensor<[192],f32>
    %int0_517 = torch.constant.int 0
    %370 = torch.prim.ListConstruct %int0_517 : (!torch.int) -> !torch.list<int>
    %none_518 = torch.constant.none
    %none_519 = torch.constant.none
    %none_520 = torch.constant.none
    %false_521 = torch.constant.bool false
    %371 = torch.aten.new_zeros %363, %370, %none_518, %none_519, %none_520, %false_521 : !torch.vtensor<[1,192,28,28],f32>, !torch.list<int>, !torch.none, !torch.none, !torch.none, !torch.bool -> !torch.vtensor<[0],f32>
    %int0_522 = torch.constant.int 0
    %372 = torch.prim.ListConstruct %int0_522 : (!torch.int) -> !torch.list<int>
    %none_523 = torch.constant.none
    %none_524 = torch.constant.none
    %none_525 = torch.constant.none
    %false_526 = torch.constant.bool false
    %373 = torch.aten.new_zeros %363, %372, %none_523, %none_524, %none_525, %false_526 : !torch.vtensor<[1,192,28,28],f32>, !torch.list<int>, !torch.none, !torch.none, !torch.none, !torch.bool -> !torch.vtensor<[0],f32>
    %int-1_527 = torch.constant.int -1
    %374 = torch.aten.unsqueeze %364, %int-1_527 : !torch.vtensor<[192],f32>, !torch.int -> !torch.vtensor<[192,1],f32>
    %int-1_528 = torch.constant.int -1
    %375 = torch.aten.unsqueeze %374, %int-1_528 : !torch.vtensor<[192,1],f32>, !torch.int -> !torch.vtensor<[192,1,1],f32>
    %int-1_529 = torch.constant.int -1
    %376 = torch.aten.unsqueeze %369, %int-1_529 : !torch.vtensor<[192],f32>, !torch.int -> !torch.vtensor<[192,1],f32>
    %int-1_530 = torch.constant.int -1
    %377 = torch.aten.unsqueeze %376, %int-1_530 : !torch.vtensor<[192,1],f32>, !torch.int -> !torch.vtensor<[192,1,1],f32>
    %int1_531 = torch.constant.int 1
    %378 = torch.aten.sub.Tensor %363, %375, %int1_531 : !torch.vtensor<[1,192,28,28],f32>, !torch.vtensor<[192,1,1],f32>, !torch.int -> !torch.vtensor<[1,192,28,28],f32>
    %379 = torch.aten.mul.Tensor %378, %377 : !torch.vtensor<[1,192,28,28],f32>, !torch.vtensor<[192,1,1],f32> -> !torch.vtensor<[1,192,28,28],f32>
    %int-1_532 = torch.constant.int -1
    %380 = torch.aten.unsqueeze %arg64, %int-1_532 : !torch.vtensor<[192],f32>, !torch.int -> !torch.vtensor<[192,1],f32>
    %int-1_533 = torch.constant.int -1
    %381 = torch.aten.unsqueeze %380, %int-1_533 : !torch.vtensor<[192,1],f32>, !torch.int -> !torch.vtensor<[192,1,1],f32>
    %382 = torch.aten.mul.Tensor %379, %381 : !torch.vtensor<[1,192,28,28],f32>, !torch.vtensor<[192,1,1],f32> -> !torch.vtensor<[1,192,28,28],f32>
    %int-1_534 = torch.constant.int -1
    %383 = torch.aten.unsqueeze %arg65, %int-1_534 : !torch.vtensor<[192],f32>, !torch.int -> !torch.vtensor<[192,1],f32>
    %int-1_535 = torch.constant.int -1
    %384 = torch.aten.unsqueeze %383, %int-1_535 : !torch.vtensor<[192,1],f32>, !torch.int -> !torch.vtensor<[192,1,1],f32>
    %int1_536 = torch.constant.int 1
    %385 = torch.aten.add.Tensor %382, %384, %int1_536 : !torch.vtensor<[1,192,28,28],f32>, !torch.vtensor<[192,1,1],f32>, !torch.int -> !torch.vtensor<[1,192,28,28],f32>
    %float0.000000e00_537 = torch.constant.float 0.000000e+00
    %float6.000000e00_538 = torch.constant.float 6.000000e+00
    %386 = torch.aten.hardtanh %385, %float0.000000e00_537, %float6.000000e00_538 : !torch.vtensor<[1,192,28,28],f32>, !torch.float, !torch.float -> !torch.vtensor<[1,192,28,28],f32>
    %int1_539 = torch.constant.int 1
    %int1_540 = torch.constant.int 1
    %int1_541 = torch.constant.int 1
    %int1_542 = torch.constant.int 1
    %387 = torch.prim.ListConstruct %int1_539, %int1_540, %int1_541, %int1_542 : (!torch.int, !torch.int, !torch.int, !torch.int) -> !torch.list<int>
    %float0.000000e00_543 = torch.constant.float 0.000000e+00
    %388 = torch.aten.constant_pad_nd %386, %387, %float0.000000e00_543 : !torch.vtensor<[1,192,28,28],f32>, !torch.list<int>, !torch.float -> !torch.vtensor<[1,192,30,30],f32>
    %none_544 = torch.constant.none
    %int1_545 = torch.constant.int 1
    %int1_546 = torch.constant.int 1
    %389 = torch.prim.ListConstruct %int1_545, %int1_546 : (!torch.int, !torch.int) -> !torch.list<int>
    %int0_547 = torch.constant.int 0
    %int0_548 = torch.constant.int 0
    %390 = torch.prim.ListConstruct %int0_547, %int0_548 : (!torch.int, !torch.int) -> !torch.list<int>
    %int1_549 = torch.constant.int 1
    %int1_550 = torch.constant.int 1
    %391 = torch.prim.ListConstruct %int1_549, %int1_550 : (!torch.int, !torch.int) -> !torch.list<int>
    %false_551 = torch.constant.bool false
    %int0_552 = torch.constant.int 0
    %int0_553 = torch.constant.int 0
    %392 = torch.prim.ListConstruct %int0_552, %int0_553 : (!torch.int, !torch.int) -> !torch.list<int>
    %int192 = torch.constant.int 192
    %393 = torch.aten.convolution %388, %arg66, %none_544, %389, %390, %391, %false_551, %392, %int192 : !torch.vtensor<[1,192,30,30],f32>, !torch.vtensor<[192,1,3,3],f32>, !torch.none, !torch.list<int>, !torch.list<int>, !torch.list<int>, !torch.bool, !torch.list<int>, !torch.int -> !torch.vtensor<[1,192,28,28],f32>
    %int6_554 = torch.constant.int 6
    %394 = torch.prims.convert_element_type %arg67, %int6_554 : !torch.vtensor<[192],f32>, !torch.int -> !torch.vtensor<[192],f32>
    %int6_555 = torch.constant.int 6
    %395 = torch.prims.convert_element_type %arg68, %int6_555 : !torch.vtensor<[192],f32>, !torch.int -> !torch.vtensor<[192],f32>
    %float1.000000e-03_556 = torch.constant.float 1.000000e-03
    %int1_557 = torch.constant.int 1
    %396 = torch.aten.add.Scalar %395, %float1.000000e-03_556, %int1_557 : !torch.vtensor<[192],f32>, !torch.float, !torch.int -> !torch.vtensor<[192],f32>
    %397 = torch.aten.sqrt %396 : !torch.vtensor<[192],f32> -> !torch.vtensor<[192],f32>
    %398 = torch.aten.reciprocal %397 : !torch.vtensor<[192],f32> -> !torch.vtensor<[192],f32>
    %int1_558 = torch.constant.int 1
    %399 = torch.aten.mul.Scalar %398, %int1_558 : !torch.vtensor<[192],f32>, !torch.int -> !torch.vtensor<[192],f32>
    %int0_559 = torch.constant.int 0
    %400 = torch.prim.ListConstruct %int0_559 : (!torch.int) -> !torch.list<int>
    %none_560 = torch.constant.none
    %none_561 = torch.constant.none
    %none_562 = torch.constant.none
    %false_563 = torch.constant.bool false
    %401 = torch.aten.new_zeros %393, %400, %none_560, %none_561, %none_562, %false_563 : !torch.vtensor<[1,192,28,28],f32>, !torch.list<int>, !torch.none, !torch.none, !torch.none, !torch.bool -> !torch.vtensor<[0],f32>
    %int0_564 = torch.constant.int 0
    %402 = torch.prim.ListConstruct %int0_564 : (!torch.int) -> !torch.list<int>
    %none_565 = torch.constant.none
    %none_566 = torch.constant.none
    %none_567 = torch.constant.none
    %false_568 = torch.constant.bool false
    %403 = torch.aten.new_zeros %393, %402, %none_565, %none_566, %none_567, %false_568 : !torch.vtensor<[1,192,28,28],f32>, !torch.list<int>, !torch.none, !torch.none, !torch.none, !torch.bool -> !torch.vtensor<[0],f32>
    %int-1_569 = torch.constant.int -1
    %404 = torch.aten.unsqueeze %394, %int-1_569 : !torch.vtensor<[192],f32>, !torch.int -> !torch.vtensor<[192,1],f32>
    %int-1_570 = torch.constant.int -1
    %405 = torch.aten.unsqueeze %404, %int-1_570 : !torch.vtensor<[192,1],f32>, !torch.int -> !torch.vtensor<[192,1,1],f32>
    %int-1_571 = torch.constant.int -1
    %406 = torch.aten.unsqueeze %399, %int-1_571 : !torch.vtensor<[192],f32>, !torch.int -> !torch.vtensor<[192,1],f32>
    %int-1_572 = torch.constant.int -1
    %407 = torch.aten.unsqueeze %406, %int-1_572 : !torch.vtensor<[192,1],f32>, !torch.int -> !torch.vtensor<[192,1,1],f32>
    %int1_573 = torch.constant.int 1
    %408 = torch.aten.sub.Tensor %393, %405, %int1_573 : !torch.vtensor<[1,192,28,28],f32>, !torch.vtensor<[192,1,1],f32>, !torch.int -> !torch.vtensor<[1,192,28,28],f32>
    %409 = torch.aten.mul.Tensor %408, %407 : !torch.vtensor<[1,192,28,28],f32>, !torch.vtensor<[192,1,1],f32> -> !torch.vtensor<[1,192,28,28],f32>
    %int-1_574 = torch.constant.int -1
    %410 = torch.aten.unsqueeze %arg69, %int-1_574 : !torch.vtensor<[192],f32>, !torch.int -> !torch.vtensor<[192,1],f32>
    %int-1_575 = torch.constant.int -1
    %411 = torch.aten.unsqueeze %410, %int-1_575 : !torch.vtensor<[192,1],f32>, !torch.int -> !torch.vtensor<[192,1,1],f32>
    %412 = torch.aten.mul.Tensor %409, %411 : !torch.vtensor<[1,192,28,28],f32>, !torch.vtensor<[192,1,1],f32> -> !torch.vtensor<[1,192,28,28],f32>
    %int-1_576 = torch.constant.int -1
    %413 = torch.aten.unsqueeze %arg70, %int-1_576 : !torch.vtensor<[192],f32>, !torch.int -> !torch.vtensor<[192,1],f32>
    %int-1_577 = torch.constant.int -1
    %414 = torch.aten.unsqueeze %413, %int-1_577 : !torch.vtensor<[192,1],f32>, !torch.int -> !torch.vtensor<[192,1,1],f32>
    %int1_578 = torch.constant.int 1
    %415 = torch.aten.add.Tensor %412, %414, %int1_578 : !torch.vtensor<[1,192,28,28],f32>, !torch.vtensor<[192,1,1],f32>, !torch.int -> !torch.vtensor<[1,192,28,28],f32>
    %float0.000000e00_579 = torch.constant.float 0.000000e+00
    %float6.000000e00_580 = torch.constant.float 6.000000e+00
    %416 = torch.aten.hardtanh %415, %float0.000000e00_579, %float6.000000e00_580 : !torch.vtensor<[1,192,28,28],f32>, !torch.float, !torch.float -> !torch.vtensor<[1,192,28,28],f32>
    %int0_581 = torch.constant.int 0
    %int0_582 = torch.constant.int 0
    %int0_583 = torch.constant.int 0
    %int0_584 = torch.constant.int 0
    %417 = torch.prim.ListConstruct %int0_581, %int0_582, %int0_583, %int0_584 : (!torch.int, !torch.int, !torch.int, !torch.int) -> !torch.list<int>
    %float0.000000e00_585 = torch.constant.float 0.000000e+00
    %418 = torch.aten.constant_pad_nd %416, %417, %float0.000000e00_585 : !torch.vtensor<[1,192,28,28],f32>, !torch.list<int>, !torch.float -> !torch.vtensor<[1,192,28,28],f32>
    %none_586 = torch.constant.none
    %int1_587 = torch.constant.int 1
    %int1_588 = torch.constant.int 1
    %419 = torch.prim.ListConstruct %int1_587, %int1_588 : (!torch.int, !torch.int) -> !torch.list<int>
    %int0_589 = torch.constant.int 0
    %int0_590 = torch.constant.int 0
    %420 = torch.prim.ListConstruct %int0_589, %int0_590 : (!torch.int, !torch.int) -> !torch.list<int>
    %int1_591 = torch.constant.int 1
    %int1_592 = torch.constant.int 1
    %421 = torch.prim.ListConstruct %int1_591, %int1_592 : (!torch.int, !torch.int) -> !torch.list<int>
    %false_593 = torch.constant.bool false
    %int0_594 = torch.constant.int 0
    %int0_595 = torch.constant.int 0
    %422 = torch.prim.ListConstruct %int0_594, %int0_595 : (!torch.int, !torch.int) -> !torch.list<int>
    %int1_596 = torch.constant.int 1
    %423 = torch.aten.convolution %418, %arg71, %none_586, %419, %420, %421, %false_593, %422, %int1_596 : !torch.vtensor<[1,192,28,28],f32>, !torch.vtensor<[32,192,1,1],f32>, !torch.none, !torch.list<int>, !torch.list<int>, !torch.list<int>, !torch.bool, !torch.list<int>, !torch.int -> !torch.vtensor<[1,32,28,28],f32>
    %int6_597 = torch.constant.int 6
    %424 = torch.prims.convert_element_type %arg72, %int6_597 : !torch.vtensor<[32],f32>, !torch.int -> !torch.vtensor<[32],f32>
    %int6_598 = torch.constant.int 6
    %425 = torch.prims.convert_element_type %arg73, %int6_598 : !torch.vtensor<[32],f32>, !torch.int -> !torch.vtensor<[32],f32>
    %float1.000000e-03_599 = torch.constant.float 1.000000e-03
    %int1_600 = torch.constant.int 1
    %426 = torch.aten.add.Scalar %425, %float1.000000e-03_599, %int1_600 : !torch.vtensor<[32],f32>, !torch.float, !torch.int -> !torch.vtensor<[32],f32>
    %427 = torch.aten.sqrt %426 : !torch.vtensor<[32],f32> -> !torch.vtensor<[32],f32>
    %428 = torch.aten.reciprocal %427 : !torch.vtensor<[32],f32> -> !torch.vtensor<[32],f32>
    %int1_601 = torch.constant.int 1
    %429 = torch.aten.mul.Scalar %428, %int1_601 : !torch.vtensor<[32],f32>, !torch.int -> !torch.vtensor<[32],f32>
    %int0_602 = torch.constant.int 0
    %430 = torch.prim.ListConstruct %int0_602 : (!torch.int) -> !torch.list<int>
    %none_603 = torch.constant.none
    %none_604 = torch.constant.none
    %none_605 = torch.constant.none
    %false_606 = torch.constant.bool false
    %431 = torch.aten.new_zeros %423, %430, %none_603, %none_604, %none_605, %false_606 : !torch.vtensor<[1,32,28,28],f32>, !torch.list<int>, !torch.none, !torch.none, !torch.none, !torch.bool -> !torch.vtensor<[0],f32>
    %int0_607 = torch.constant.int 0
    %432 = torch.prim.ListConstruct %int0_607 : (!torch.int) -> !torch.list<int>
    %none_608 = torch.constant.none
    %none_609 = torch.constant.none
    %none_610 = torch.constant.none
    %false_611 = torch.constant.bool false
    %433 = torch.aten.new_zeros %423, %432, %none_608, %none_609, %none_610, %false_611 : !torch.vtensor<[1,32,28,28],f32>, !torch.list<int>, !torch.none, !torch.none, !torch.none, !torch.bool -> !torch.vtensor<[0],f32>
    %int-1_612 = torch.constant.int -1
    %434 = torch.aten.unsqueeze %424, %int-1_612 : !torch.vtensor<[32],f32>, !torch.int -> !torch.vtensor<[32,1],f32>
    %int-1_613 = torch.constant.int -1
    %435 = torch.aten.unsqueeze %434, %int-1_613 : !torch.vtensor<[32,1],f32>, !torch.int -> !torch.vtensor<[32,1,1],f32>
    %int-1_614 = torch.constant.int -1
    %436 = torch.aten.unsqueeze %429, %int-1_614 : !torch.vtensor<[32],f32>, !torch.int -> !torch.vtensor<[32,1],f32>
    %int-1_615 = torch.constant.int -1
    %437 = torch.aten.unsqueeze %436, %int-1_615 : !torch.vtensor<[32,1],f32>, !torch.int -> !torch.vtensor<[32,1,1],f32>
    %int1_616 = torch.constant.int 1
    %438 = torch.aten.sub.Tensor %423, %435, %int1_616 : !torch.vtensor<[1,32,28,28],f32>, !torch.vtensor<[32,1,1],f32>, !torch.int -> !torch.vtensor<[1,32,28,28],f32>
    %439 = torch.aten.mul.Tensor %438, %437 : !torch.vtensor<[1,32,28,28],f32>, !torch.vtensor<[32,1,1],f32> -> !torch.vtensor<[1,32,28,28],f32>
    %int-1_617 = torch.constant.int -1
    %440 = torch.aten.unsqueeze %arg74, %int-1_617 : !torch.vtensor<[32],f32>, !torch.int -> !torch.vtensor<[32,1],f32>
    %int-1_618 = torch.constant.int -1
    %441 = torch.aten.unsqueeze %440, %int-1_618 : !torch.vtensor<[32,1],f32>, !torch.int -> !torch.vtensor<[32,1,1],f32>
    %442 = torch.aten.mul.Tensor %439, %441 : !torch.vtensor<[1,32,28,28],f32>, !torch.vtensor<[32,1,1],f32> -> !torch.vtensor<[1,32,28,28],f32>
    %int-1_619 = torch.constant.int -1
    %443 = torch.aten.unsqueeze %arg75, %int-1_619 : !torch.vtensor<[32],f32>, !torch.int -> !torch.vtensor<[32,1],f32>
    %int-1_620 = torch.constant.int -1
    %444 = torch.aten.unsqueeze %443, %int-1_620 : !torch.vtensor<[32,1],f32>, !torch.int -> !torch.vtensor<[32,1,1],f32>
    %int1_621 = torch.constant.int 1
    %445 = torch.aten.add.Tensor %442, %444, %int1_621 : !torch.vtensor<[1,32,28,28],f32>, !torch.vtensor<[32,1,1],f32>, !torch.int -> !torch.vtensor<[1,32,28,28],f32>
    %int1_622 = torch.constant.int 1
    %446 = torch.aten.add.Tensor %356, %445, %int1_622 : !torch.vtensor<[1,32,28,28],f32>, !torch.vtensor<[1,32,28,28],f32>, !torch.int -> !torch.vtensor<[1,32,28,28],f32>
    %int0_623 = torch.constant.int 0
    %int0_624 = torch.constant.int 0
    %int0_625 = torch.constant.int 0
    %int0_626 = torch.constant.int 0
    %447 = torch.prim.ListConstruct %int0_623, %int0_624, %int0_625, %int0_626 : (!torch.int, !torch.int, !torch.int, !torch.int) -> !torch.list<int>
    %float0.000000e00_627 = torch.constant.float 0.000000e+00
    %448 = torch.aten.constant_pad_nd %446, %447, %float0.000000e00_627 : !torch.vtensor<[1,32,28,28],f32>, !torch.list<int>, !torch.float -> !torch.vtensor<[1,32,28,28],f32>
    %none_628 = torch.constant.none
    %int1_629 = torch.constant.int 1
    %int1_630 = torch.constant.int 1
    %449 = torch.prim.ListConstruct %int1_629, %int1_630 : (!torch.int, !torch.int) -> !torch.list<int>
    %int0_631 = torch.constant.int 0
    %int0_632 = torch.constant.int 0
    %450 = torch.prim.ListConstruct %int0_631, %int0_632 : (!torch.int, !torch.int) -> !torch.list<int>
    %int1_633 = torch.constant.int 1
    %int1_634 = torch.constant.int 1
    %451 = torch.prim.ListConstruct %int1_633, %int1_634 : (!torch.int, !torch.int) -> !torch.list<int>
    %false_635 = torch.constant.bool false
    %int0_636 = torch.constant.int 0
    %int0_637 = torch.constant.int 0
    %452 = torch.prim.ListConstruct %int0_636, %int0_637 : (!torch.int, !torch.int) -> !torch.list<int>
    %int1_638 = torch.constant.int 1
    %453 = torch.aten.convolution %448, %arg76, %none_628, %449, %450, %451, %false_635, %452, %int1_638 : !torch.vtensor<[1,32,28,28],f32>, !torch.vtensor<[192,32,1,1],f32>, !torch.none, !torch.list<int>, !torch.list<int>, !torch.list<int>, !torch.bool, !torch.list<int>, !torch.int -> !torch.vtensor<[1,192,28,28],f32>
    %int6_639 = torch.constant.int 6
    %454 = torch.prims.convert_element_type %arg77, %int6_639 : !torch.vtensor<[192],f32>, !torch.int -> !torch.vtensor<[192],f32>
    %int6_640 = torch.constant.int 6
    %455 = torch.prims.convert_element_type %arg78, %int6_640 : !torch.vtensor<[192],f32>, !torch.int -> !torch.vtensor<[192],f32>
    %float1.000000e-03_641 = torch.constant.float 1.000000e-03
    %int1_642 = torch.constant.int 1
    %456 = torch.aten.add.Scalar %455, %float1.000000e-03_641, %int1_642 : !torch.vtensor<[192],f32>, !torch.float, !torch.int -> !torch.vtensor<[192],f32>
    %457 = torch.aten.sqrt %456 : !torch.vtensor<[192],f32> -> !torch.vtensor<[192],f32>
    %458 = torch.aten.reciprocal %457 : !torch.vtensor<[192],f32> -> !torch.vtensor<[192],f32>
    %int1_643 = torch.constant.int 1
    %459 = torch.aten.mul.Scalar %458, %int1_643 : !torch.vtensor<[192],f32>, !torch.int -> !torch.vtensor<[192],f32>
    %int0_644 = torch.constant.int 0
    %460 = torch.prim.ListConstruct %int0_644 : (!torch.int) -> !torch.list<int>
    %none_645 = torch.constant.none
    %none_646 = torch.constant.none
    %none_647 = torch.constant.none
    %false_648 = torch.constant.bool false
    %461 = torch.aten.new_zeros %453, %460, %none_645, %none_646, %none_647, %false_648 : !torch.vtensor<[1,192,28,28],f32>, !torch.list<int>, !torch.none, !torch.none, !torch.none, !torch.bool -> !torch.vtensor<[0],f32>
    %int0_649 = torch.constant.int 0
    %462 = torch.prim.ListConstruct %int0_649 : (!torch.int) -> !torch.list<int>
    %none_650 = torch.constant.none
    %none_651 = torch.constant.none
    %none_652 = torch.constant.none
    %false_653 = torch.constant.bool false
    %463 = torch.aten.new_zeros %453, %462, %none_650, %none_651, %none_652, %false_653 : !torch.vtensor<[1,192,28,28],f32>, !torch.list<int>, !torch.none, !torch.none, !torch.none, !torch.bool -> !torch.vtensor<[0],f32>
    %int-1_654 = torch.constant.int -1
    %464 = torch.aten.unsqueeze %454, %int-1_654 : !torch.vtensor<[192],f32>, !torch.int -> !torch.vtensor<[192,1],f32>
    %int-1_655 = torch.constant.int -1
    %465 = torch.aten.unsqueeze %464, %int-1_655 : !torch.vtensor<[192,1],f32>, !torch.int -> !torch.vtensor<[192,1,1],f32>
    %int-1_656 = torch.constant.int -1
    %466 = torch.aten.unsqueeze %459, %int-1_656 : !torch.vtensor<[192],f32>, !torch.int -> !torch.vtensor<[192,1],f32>
    %int-1_657 = torch.constant.int -1
    %467 = torch.aten.unsqueeze %466, %int-1_657 : !torch.vtensor<[192,1],f32>, !torch.int -> !torch.vtensor<[192,1,1],f32>
    %int1_658 = torch.constant.int 1
    %468 = torch.aten.sub.Tensor %453, %465, %int1_658 : !torch.vtensor<[1,192,28,28],f32>, !torch.vtensor<[192,1,1],f32>, !torch.int -> !torch.vtensor<[1,192,28,28],f32>
    %469 = torch.aten.mul.Tensor %468, %467 : !torch.vtensor<[1,192,28,28],f32>, !torch.vtensor<[192,1,1],f32> -> !torch.vtensor<[1,192,28,28],f32>
    %int-1_659 = torch.constant.int -1
    %470 = torch.aten.unsqueeze %arg79, %int-1_659 : !torch.vtensor<[192],f32>, !torch.int -> !torch.vtensor<[192,1],f32>
    %int-1_660 = torch.constant.int -1
    %471 = torch.aten.unsqueeze %470, %int-1_660 : !torch.vtensor<[192,1],f32>, !torch.int -> !torch.vtensor<[192,1,1],f32>
    %472 = torch.aten.mul.Tensor %469, %471 : !torch.vtensor<[1,192,28,28],f32>, !torch.vtensor<[192,1,1],f32> -> !torch.vtensor<[1,192,28,28],f32>
    %int-1_661 = torch.constant.int -1
    %473 = torch.aten.unsqueeze %arg80, %int-1_661 : !torch.vtensor<[192],f32>, !torch.int -> !torch.vtensor<[192,1],f32>
    %int-1_662 = torch.constant.int -1
    %474 = torch.aten.unsqueeze %473, %int-1_662 : !torch.vtensor<[192,1],f32>, !torch.int -> !torch.vtensor<[192,1,1],f32>
    %int1_663 = torch.constant.int 1
    %475 = torch.aten.add.Tensor %472, %474, %int1_663 : !torch.vtensor<[1,192,28,28],f32>, !torch.vtensor<[192,1,1],f32>, !torch.int -> !torch.vtensor<[1,192,28,28],f32>
    %float0.000000e00_664 = torch.constant.float 0.000000e+00
    %float6.000000e00_665 = torch.constant.float 6.000000e+00
    %476 = torch.aten.hardtanh %475, %float0.000000e00_664, %float6.000000e00_665 : !torch.vtensor<[1,192,28,28],f32>, !torch.float, !torch.float -> !torch.vtensor<[1,192,28,28],f32>
    %int1_666 = torch.constant.int 1
    %int1_667 = torch.constant.int 1
    %int1_668 = torch.constant.int 1
    %int1_669 = torch.constant.int 1
    %477 = torch.prim.ListConstruct %int1_666, %int1_667, %int1_668, %int1_669 : (!torch.int, !torch.int, !torch.int, !torch.int) -> !torch.list<int>
    %float0.000000e00_670 = torch.constant.float 0.000000e+00
    %478 = torch.aten.constant_pad_nd %476, %477, %float0.000000e00_670 : !torch.vtensor<[1,192,28,28],f32>, !torch.list<int>, !torch.float -> !torch.vtensor<[1,192,30,30],f32>
    %none_671 = torch.constant.none
    %int1_672 = torch.constant.int 1
    %int1_673 = torch.constant.int 1
    %479 = torch.prim.ListConstruct %int1_672, %int1_673 : (!torch.int, !torch.int) -> !torch.list<int>
    %int0_674 = torch.constant.int 0
    %int0_675 = torch.constant.int 0
    %480 = torch.prim.ListConstruct %int0_674, %int0_675 : (!torch.int, !torch.int) -> !torch.list<int>
    %int1_676 = torch.constant.int 1
    %int1_677 = torch.constant.int 1
    %481 = torch.prim.ListConstruct %int1_676, %int1_677 : (!torch.int, !torch.int) -> !torch.list<int>
    %false_678 = torch.constant.bool false
    %int0_679 = torch.constant.int 0
    %int0_680 = torch.constant.int 0
    %482 = torch.prim.ListConstruct %int0_679, %int0_680 : (!torch.int, !torch.int) -> !torch.list<int>
    %int192_681 = torch.constant.int 192
    %483 = torch.aten.convolution %478, %arg81, %none_671, %479, %480, %481, %false_678, %482, %int192_681 : !torch.vtensor<[1,192,30,30],f32>, !torch.vtensor<[192,1,3,3],f32>, !torch.none, !torch.list<int>, !torch.list<int>, !torch.list<int>, !torch.bool, !torch.list<int>, !torch.int -> !torch.vtensor<[1,192,28,28],f32>
    %int6_682 = torch.constant.int 6
    %484 = torch.prims.convert_element_type %arg82, %int6_682 : !torch.vtensor<[192],f32>, !torch.int -> !torch.vtensor<[192],f32>
    %int6_683 = torch.constant.int 6
    %485 = torch.prims.convert_element_type %arg83, %int6_683 : !torch.vtensor<[192],f32>, !torch.int -> !torch.vtensor<[192],f32>
    %float1.000000e-03_684 = torch.constant.float 1.000000e-03
    %int1_685 = torch.constant.int 1
    %486 = torch.aten.add.Scalar %485, %float1.000000e-03_684, %int1_685 : !torch.vtensor<[192],f32>, !torch.float, !torch.int -> !torch.vtensor<[192],f32>
    %487 = torch.aten.sqrt %486 : !torch.vtensor<[192],f32> -> !torch.vtensor<[192],f32>
    %488 = torch.aten.reciprocal %487 : !torch.vtensor<[192],f32> -> !torch.vtensor<[192],f32>
    %int1_686 = torch.constant.int 1
    %489 = torch.aten.mul.Scalar %488, %int1_686 : !torch.vtensor<[192],f32>, !torch.int -> !torch.vtensor<[192],f32>
    %int0_687 = torch.constant.int 0
    %490 = torch.prim.ListConstruct %int0_687 : (!torch.int) -> !torch.list<int>
    %none_688 = torch.constant.none
    %none_689 = torch.constant.none
    %none_690 = torch.constant.none
    %false_691 = torch.constant.bool false
    %491 = torch.aten.new_zeros %483, %490, %none_688, %none_689, %none_690, %false_691 : !torch.vtensor<[1,192,28,28],f32>, !torch.list<int>, !torch.none, !torch.none, !torch.none, !torch.bool -> !torch.vtensor<[0],f32>
    %int0_692 = torch.constant.int 0
    %492 = torch.prim.ListConstruct %int0_692 : (!torch.int) -> !torch.list<int>
    %none_693 = torch.constant.none
    %none_694 = torch.constant.none
    %none_695 = torch.constant.none
    %false_696 = torch.constant.bool false
    %493 = torch.aten.new_zeros %483, %492, %none_693, %none_694, %none_695, %false_696 : !torch.vtensor<[1,192,28,28],f32>, !torch.list<int>, !torch.none, !torch.none, !torch.none, !torch.bool -> !torch.vtensor<[0],f32>
    %int-1_697 = torch.constant.int -1
    %494 = torch.aten.unsqueeze %484, %int-1_697 : !torch.vtensor<[192],f32>, !torch.int -> !torch.vtensor<[192,1],f32>
    %int-1_698 = torch.constant.int -1
    %495 = torch.aten.unsqueeze %494, %int-1_698 : !torch.vtensor<[192,1],f32>, !torch.int -> !torch.vtensor<[192,1,1],f32>
    %int-1_699 = torch.constant.int -1
    %496 = torch.aten.unsqueeze %489, %int-1_699 : !torch.vtensor<[192],f32>, !torch.int -> !torch.vtensor<[192,1],f32>
    %int-1_700 = torch.constant.int -1
    %497 = torch.aten.unsqueeze %496, %int-1_700 : !torch.vtensor<[192,1],f32>, !torch.int -> !torch.vtensor<[192,1,1],f32>
    %int1_701 = torch.constant.int 1
    %498 = torch.aten.sub.Tensor %483, %495, %int1_701 : !torch.vtensor<[1,192,28,28],f32>, !torch.vtensor<[192,1,1],f32>, !torch.int -> !torch.vtensor<[1,192,28,28],f32>
    %499 = torch.aten.mul.Tensor %498, %497 : !torch.vtensor<[1,192,28,28],f32>, !torch.vtensor<[192,1,1],f32> -> !torch.vtensor<[1,192,28,28],f32>
    %int-1_702 = torch.constant.int -1
    %500 = torch.aten.unsqueeze %arg84, %int-1_702 : !torch.vtensor<[192],f32>, !torch.int -> !torch.vtensor<[192,1],f32>
    %int-1_703 = torch.constant.int -1
    %501 = torch.aten.unsqueeze %500, %int-1_703 : !torch.vtensor<[192,1],f32>, !torch.int -> !torch.vtensor<[192,1,1],f32>
    %502 = torch.aten.mul.Tensor %499, %501 : !torch.vtensor<[1,192,28,28],f32>, !torch.vtensor<[192,1,1],f32> -> !torch.vtensor<[1,192,28,28],f32>
    %int-1_704 = torch.constant.int -1
    %503 = torch.aten.unsqueeze %arg85, %int-1_704 : !torch.vtensor<[192],f32>, !torch.int -> !torch.vtensor<[192,1],f32>
    %int-1_705 = torch.constant.int -1
    %504 = torch.aten.unsqueeze %503, %int-1_705 : !torch.vtensor<[192,1],f32>, !torch.int -> !torch.vtensor<[192,1,1],f32>
    %int1_706 = torch.constant.int 1
    %505 = torch.aten.add.Tensor %502, %504, %int1_706 : !torch.vtensor<[1,192,28,28],f32>, !torch.vtensor<[192,1,1],f32>, !torch.int -> !torch.vtensor<[1,192,28,28],f32>
    %float0.000000e00_707 = torch.constant.float 0.000000e+00
    %float6.000000e00_708 = torch.constant.float 6.000000e+00
    %506 = torch.aten.hardtanh %505, %float0.000000e00_707, %float6.000000e00_708 : !torch.vtensor<[1,192,28,28],f32>, !torch.float, !torch.float -> !torch.vtensor<[1,192,28,28],f32>
    %int0_709 = torch.constant.int 0
    %int0_710 = torch.constant.int 0
    %int0_711 = torch.constant.int 0
    %int0_712 = torch.constant.int 0
    %507 = torch.prim.ListConstruct %int0_709, %int0_710, %int0_711, %int0_712 : (!torch.int, !torch.int, !torch.int, !torch.int) -> !torch.list<int>
    %float0.000000e00_713 = torch.constant.float 0.000000e+00
    %508 = torch.aten.constant_pad_nd %506, %507, %float0.000000e00_713 : !torch.vtensor<[1,192,28,28],f32>, !torch.list<int>, !torch.float -> !torch.vtensor<[1,192,28,28],f32>
    %none_714 = torch.constant.none
    %int1_715 = torch.constant.int 1
    %int1_716 = torch.constant.int 1
    %509 = torch.prim.ListConstruct %int1_715, %int1_716 : (!torch.int, !torch.int) -> !torch.list<int>
    %int0_717 = torch.constant.int 0
    %int0_718 = torch.constant.int 0
    %510 = torch.prim.ListConstruct %int0_717, %int0_718 : (!torch.int, !torch.int) -> !torch.list<int>
    %int1_719 = torch.constant.int 1
    %int1_720 = torch.constant.int 1
    %511 = torch.prim.ListConstruct %int1_719, %int1_720 : (!torch.int, !torch.int) -> !torch.list<int>
    %false_721 = torch.constant.bool false
    %int0_722 = torch.constant.int 0
    %int0_723 = torch.constant.int 0
    %512 = torch.prim.ListConstruct %int0_722, %int0_723 : (!torch.int, !torch.int) -> !torch.list<int>
    %int1_724 = torch.constant.int 1
    %513 = torch.aten.convolution %508, %arg86, %none_714, %509, %510, %511, %false_721, %512, %int1_724 : !torch.vtensor<[1,192,28,28],f32>, !torch.vtensor<[32,192,1,1],f32>, !torch.none, !torch.list<int>, !torch.list<int>, !torch.list<int>, !torch.bool, !torch.list<int>, !torch.int -> !torch.vtensor<[1,32,28,28],f32>
    %int6_725 = torch.constant.int 6
    %514 = torch.prims.convert_element_type %arg87, %int6_725 : !torch.vtensor<[32],f32>, !torch.int -> !torch.vtensor<[32],f32>
    %int6_726 = torch.constant.int 6
    %515 = torch.prims.convert_element_type %arg88, %int6_726 : !torch.vtensor<[32],f32>, !torch.int -> !torch.vtensor<[32],f32>
    %float1.000000e-03_727 = torch.constant.float 1.000000e-03
    %int1_728 = torch.constant.int 1
    %516 = torch.aten.add.Scalar %515, %float1.000000e-03_727, %int1_728 : !torch.vtensor<[32],f32>, !torch.float, !torch.int -> !torch.vtensor<[32],f32>
    %517 = torch.aten.sqrt %516 : !torch.vtensor<[32],f32> -> !torch.vtensor<[32],f32>
    %518 = torch.aten.reciprocal %517 : !torch.vtensor<[32],f32> -> !torch.vtensor<[32],f32>
    %int1_729 = torch.constant.int 1
    %519 = torch.aten.mul.Scalar %518, %int1_729 : !torch.vtensor<[32],f32>, !torch.int -> !torch.vtensor<[32],f32>
    %int0_730 = torch.constant.int 0
    %520 = torch.prim.ListConstruct %int0_730 : (!torch.int) -> !torch.list<int>
    %none_731 = torch.constant.none
    %none_732 = torch.constant.none
    %none_733 = torch.constant.none
    %false_734 = torch.constant.bool false
    %521 = torch.aten.new_zeros %513, %520, %none_731, %none_732, %none_733, %false_734 : !torch.vtensor<[1,32,28,28],f32>, !torch.list<int>, !torch.none, !torch.none, !torch.none, !torch.bool -> !torch.vtensor<[0],f32>
    %int0_735 = torch.constant.int 0
    %522 = torch.prim.ListConstruct %int0_735 : (!torch.int) -> !torch.list<int>
    %none_736 = torch.constant.none
    %none_737 = torch.constant.none
    %none_738 = torch.constant.none
    %false_739 = torch.constant.bool false
    %523 = torch.aten.new_zeros %513, %522, %none_736, %none_737, %none_738, %false_739 : !torch.vtensor<[1,32,28,28],f32>, !torch.list<int>, !torch.none, !torch.none, !torch.none, !torch.bool -> !torch.vtensor<[0],f32>
    %int-1_740 = torch.constant.int -1
    %524 = torch.aten.unsqueeze %514, %int-1_740 : !torch.vtensor<[32],f32>, !torch.int -> !torch.vtensor<[32,1],f32>
    %int-1_741 = torch.constant.int -1
    %525 = torch.aten.unsqueeze %524, %int-1_741 : !torch.vtensor<[32,1],f32>, !torch.int -> !torch.vtensor<[32,1,1],f32>
    %int-1_742 = torch.constant.int -1
    %526 = torch.aten.unsqueeze %519, %int-1_742 : !torch.vtensor<[32],f32>, !torch.int -> !torch.vtensor<[32,1],f32>
    %int-1_743 = torch.constant.int -1
    %527 = torch.aten.unsqueeze %526, %int-1_743 : !torch.vtensor<[32,1],f32>, !torch.int -> !torch.vtensor<[32,1,1],f32>
    %int1_744 = torch.constant.int 1
    %528 = torch.aten.sub.Tensor %513, %525, %int1_744 : !torch.vtensor<[1,32,28,28],f32>, !torch.vtensor<[32,1,1],f32>, !torch.int -> !torch.vtensor<[1,32,28,28],f32>
    %529 = torch.aten.mul.Tensor %528, %527 : !torch.vtensor<[1,32,28,28],f32>, !torch.vtensor<[32,1,1],f32> -> !torch.vtensor<[1,32,28,28],f32>
    %int-1_745 = torch.constant.int -1
    %530 = torch.aten.unsqueeze %arg89, %int-1_745 : !torch.vtensor<[32],f32>, !torch.int -> !torch.vtensor<[32,1],f32>
    %int-1_746 = torch.constant.int -1
    %531 = torch.aten.unsqueeze %530, %int-1_746 : !torch.vtensor<[32,1],f32>, !torch.int -> !torch.vtensor<[32,1,1],f32>
    %532 = torch.aten.mul.Tensor %529, %531 : !torch.vtensor<[1,32,28,28],f32>, !torch.vtensor<[32,1,1],f32> -> !torch.vtensor<[1,32,28,28],f32>
    %int-1_747 = torch.constant.int -1
    %533 = torch.aten.unsqueeze %arg90, %int-1_747 : !torch.vtensor<[32],f32>, !torch.int -> !torch.vtensor<[32,1],f32>
    %int-1_748 = torch.constant.int -1
    %534 = torch.aten.unsqueeze %533, %int-1_748 : !torch.vtensor<[32,1],f32>, !torch.int -> !torch.vtensor<[32,1,1],f32>
    %int1_749 = torch.constant.int 1
    %535 = torch.aten.add.Tensor %532, %534, %int1_749 : !torch.vtensor<[1,32,28,28],f32>, !torch.vtensor<[32,1,1],f32>, !torch.int -> !torch.vtensor<[1,32,28,28],f32>
    %int1_750 = torch.constant.int 1
    %536 = torch.aten.add.Tensor %446, %535, %int1_750 : !torch.vtensor<[1,32,28,28],f32>, !torch.vtensor<[1,32,28,28],f32>, !torch.int -> !torch.vtensor<[1,32,28,28],f32>
    %int0_751 = torch.constant.int 0
    %int0_752 = torch.constant.int 0
    %int0_753 = torch.constant.int 0
    %int0_754 = torch.constant.int 0
    %537 = torch.prim.ListConstruct %int0_751, %int0_752, %int0_753, %int0_754 : (!torch.int, !torch.int, !torch.int, !torch.int) -> !torch.list<int>
    %float0.000000e00_755 = torch.constant.float 0.000000e+00
    %538 = torch.aten.constant_pad_nd %536, %537, %float0.000000e00_755 : !torch.vtensor<[1,32,28,28],f32>, !torch.list<int>, !torch.float -> !torch.vtensor<[1,32,28,28],f32>
    %none_756 = torch.constant.none
    %int1_757 = torch.constant.int 1
    %int1_758 = torch.constant.int 1
    %539 = torch.prim.ListConstruct %int1_757, %int1_758 : (!torch.int, !torch.int) -> !torch.list<int>
    %int0_759 = torch.constant.int 0
    %int0_760 = torch.constant.int 0
    %540 = torch.prim.ListConstruct %int0_759, %int0_760 : (!torch.int, !torch.int) -> !torch.list<int>
    %int1_761 = torch.constant.int 1
    %int1_762 = torch.constant.int 1
    %541 = torch.prim.ListConstruct %int1_761, %int1_762 : (!torch.int, !torch.int) -> !torch.list<int>
    %false_763 = torch.constant.bool false
    %int0_764 = torch.constant.int 0
    %int0_765 = torch.constant.int 0
    %542 = torch.prim.ListConstruct %int0_764, %int0_765 : (!torch.int, !torch.int) -> !torch.list<int>
    %int1_766 = torch.constant.int 1
    %543 = torch.aten.convolution %538, %arg91, %none_756, %539, %540, %541, %false_763, %542, %int1_766 : !torch.vtensor<[1,32,28,28],f32>, !torch.vtensor<[192,32,1,1],f32>, !torch.none, !torch.list<int>, !torch.list<int>, !torch.list<int>, !torch.bool, !torch.list<int>, !torch.int -> !torch.vtensor<[1,192,28,28],f32>
    %int6_767 = torch.constant.int 6
    %544 = torch.prims.convert_element_type %arg92, %int6_767 : !torch.vtensor<[192],f32>, !torch.int -> !torch.vtensor<[192],f32>
    %int6_768 = torch.constant.int 6
    %545 = torch.prims.convert_element_type %arg93, %int6_768 : !torch.vtensor<[192],f32>, !torch.int -> !torch.vtensor<[192],f32>
    %float1.000000e-03_769 = torch.constant.float 1.000000e-03
    %int1_770 = torch.constant.int 1
    %546 = torch.aten.add.Scalar %545, %float1.000000e-03_769, %int1_770 : !torch.vtensor<[192],f32>, !torch.float, !torch.int -> !torch.vtensor<[192],f32>
    %547 = torch.aten.sqrt %546 : !torch.vtensor<[192],f32> -> !torch.vtensor<[192],f32>
    %548 = torch.aten.reciprocal %547 : !torch.vtensor<[192],f32> -> !torch.vtensor<[192],f32>
    %int1_771 = torch.constant.int 1
    %549 = torch.aten.mul.Scalar %548, %int1_771 : !torch.vtensor<[192],f32>, !torch.int -> !torch.vtensor<[192],f32>
    %int0_772 = torch.constant.int 0
    %550 = torch.prim.ListConstruct %int0_772 : (!torch.int) -> !torch.list<int>
    %none_773 = torch.constant.none
    %none_774 = torch.constant.none
    %none_775 = torch.constant.none
    %false_776 = torch.constant.bool false
    %551 = torch.aten.new_zeros %543, %550, %none_773, %none_774, %none_775, %false_776 : !torch.vtensor<[1,192,28,28],f32>, !torch.list<int>, !torch.none, !torch.none, !torch.none, !torch.bool -> !torch.vtensor<[0],f32>
    %int0_777 = torch.constant.int 0
    %552 = torch.prim.ListConstruct %int0_777 : (!torch.int) -> !torch.list<int>
    %none_778 = torch.constant.none
    %none_779 = torch.constant.none
    %none_780 = torch.constant.none
    %false_781 = torch.constant.bool false
    %553 = torch.aten.new_zeros %543, %552, %none_778, %none_779, %none_780, %false_781 : !torch.vtensor<[1,192,28,28],f32>, !torch.list<int>, !torch.none, !torch.none, !torch.none, !torch.bool -> !torch.vtensor<[0],f32>
    %int-1_782 = torch.constant.int -1
    %554 = torch.aten.unsqueeze %544, %int-1_782 : !torch.vtensor<[192],f32>, !torch.int -> !torch.vtensor<[192,1],f32>
    %int-1_783 = torch.constant.int -1
    %555 = torch.aten.unsqueeze %554, %int-1_783 : !torch.vtensor<[192,1],f32>, !torch.int -> !torch.vtensor<[192,1,1],f32>
    %int-1_784 = torch.constant.int -1
    %556 = torch.aten.unsqueeze %549, %int-1_784 : !torch.vtensor<[192],f32>, !torch.int -> !torch.vtensor<[192,1],f32>
    %int-1_785 = torch.constant.int -1
    %557 = torch.aten.unsqueeze %556, %int-1_785 : !torch.vtensor<[192,1],f32>, !torch.int -> !torch.vtensor<[192,1,1],f32>
    %int1_786 = torch.constant.int 1
    %558 = torch.aten.sub.Tensor %543, %555, %int1_786 : !torch.vtensor<[1,192,28,28],f32>, !torch.vtensor<[192,1,1],f32>, !torch.int -> !torch.vtensor<[1,192,28,28],f32>
    %559 = torch.aten.mul.Tensor %558, %557 : !torch.vtensor<[1,192,28,28],f32>, !torch.vtensor<[192,1,1],f32> -> !torch.vtensor<[1,192,28,28],f32>
    %int-1_787 = torch.constant.int -1
    %560 = torch.aten.unsqueeze %arg94, %int-1_787 : !torch.vtensor<[192],f32>, !torch.int -> !torch.vtensor<[192,1],f32>
    %int-1_788 = torch.constant.int -1
    %561 = torch.aten.unsqueeze %560, %int-1_788 : !torch.vtensor<[192,1],f32>, !torch.int -> !torch.vtensor<[192,1,1],f32>
    %562 = torch.aten.mul.Tensor %559, %561 : !torch.vtensor<[1,192,28,28],f32>, !torch.vtensor<[192,1,1],f32> -> !torch.vtensor<[1,192,28,28],f32>
    %int-1_789 = torch.constant.int -1
    %563 = torch.aten.unsqueeze %arg95, %int-1_789 : !torch.vtensor<[192],f32>, !torch.int -> !torch.vtensor<[192,1],f32>
    %int-1_790 = torch.constant.int -1
    %564 = torch.aten.unsqueeze %563, %int-1_790 : !torch.vtensor<[192,1],f32>, !torch.int -> !torch.vtensor<[192,1,1],f32>
    %int1_791 = torch.constant.int 1
    %565 = torch.aten.add.Tensor %562, %564, %int1_791 : !torch.vtensor<[1,192,28,28],f32>, !torch.vtensor<[192,1,1],f32>, !torch.int -> !torch.vtensor<[1,192,28,28],f32>
    %float0.000000e00_792 = torch.constant.float 0.000000e+00
    %float6.000000e00_793 = torch.constant.float 6.000000e+00
    %566 = torch.aten.hardtanh %565, %float0.000000e00_792, %float6.000000e00_793 : !torch.vtensor<[1,192,28,28],f32>, !torch.float, !torch.float -> !torch.vtensor<[1,192,28,28],f32>
    %int0_794 = torch.constant.int 0
    %int1_795 = torch.constant.int 1
    %int0_796 = torch.constant.int 0
    %int1_797 = torch.constant.int 1
    %567 = torch.prim.ListConstruct %int0_794, %int1_795, %int0_796, %int1_797 : (!torch.int, !torch.int, !torch.int, !torch.int) -> !torch.list<int>
    %float0.000000e00_798 = torch.constant.float 0.000000e+00
    %568 = torch.aten.constant_pad_nd %566, %567, %float0.000000e00_798 : !torch.vtensor<[1,192,28,28],f32>, !torch.list<int>, !torch.float -> !torch.vtensor<[1,192,29,29],f32>
    %none_799 = torch.constant.none
    %int2_800 = torch.constant.int 2
    %int2_801 = torch.constant.int 2
    %569 = torch.prim.ListConstruct %int2_800, %int2_801 : (!torch.int, !torch.int) -> !torch.list<int>
    %int0_802 = torch.constant.int 0
    %int0_803 = torch.constant.int 0
    %570 = torch.prim.ListConstruct %int0_802, %int0_803 : (!torch.int, !torch.int) -> !torch.list<int>
    %int1_804 = torch.constant.int 1
    %int1_805 = torch.constant.int 1
    %571 = torch.prim.ListConstruct %int1_804, %int1_805 : (!torch.int, !torch.int) -> !torch.list<int>
    %false_806 = torch.constant.bool false
    %int0_807 = torch.constant.int 0
    %int0_808 = torch.constant.int 0
    %572 = torch.prim.ListConstruct %int0_807, %int0_808 : (!torch.int, !torch.int) -> !torch.list<int>
    %int192_809 = torch.constant.int 192
    %573 = torch.aten.convolution %568, %arg96, %none_799, %569, %570, %571, %false_806, %572, %int192_809 : !torch.vtensor<[1,192,29,29],f32>, !torch.vtensor<[192,1,3,3],f32>, !torch.none, !torch.list<int>, !torch.list<int>, !torch.list<int>, !torch.bool, !torch.list<int>, !torch.int -> !torch.vtensor<[1,192,14,14],f32>
    %int6_810 = torch.constant.int 6
    %574 = torch.prims.convert_element_type %arg97, %int6_810 : !torch.vtensor<[192],f32>, !torch.int -> !torch.vtensor<[192],f32>
    %int6_811 = torch.constant.int 6
    %575 = torch.prims.convert_element_type %arg98, %int6_811 : !torch.vtensor<[192],f32>, !torch.int -> !torch.vtensor<[192],f32>
    %float1.000000e-03_812 = torch.constant.float 1.000000e-03
    %int1_813 = torch.constant.int 1
    %576 = torch.aten.add.Scalar %575, %float1.000000e-03_812, %int1_813 : !torch.vtensor<[192],f32>, !torch.float, !torch.int -> !torch.vtensor<[192],f32>
    %577 = torch.aten.sqrt %576 : !torch.vtensor<[192],f32> -> !torch.vtensor<[192],f32>
    %578 = torch.aten.reciprocal %577 : !torch.vtensor<[192],f32> -> !torch.vtensor<[192],f32>
    %int1_814 = torch.constant.int 1
    %579 = torch.aten.mul.Scalar %578, %int1_814 : !torch.vtensor<[192],f32>, !torch.int -> !torch.vtensor<[192],f32>
    %int0_815 = torch.constant.int 0
    %580 = torch.prim.ListConstruct %int0_815 : (!torch.int) -> !torch.list<int>
    %none_816 = torch.constant.none
    %none_817 = torch.constant.none
    %none_818 = torch.constant.none
    %false_819 = torch.constant.bool false
    %581 = torch.aten.new_zeros %573, %580, %none_816, %none_817, %none_818, %false_819 : !torch.vtensor<[1,192,14,14],f32>, !torch.list<int>, !torch.none, !torch.none, !torch.none, !torch.bool -> !torch.vtensor<[0],f32>
    %int0_820 = torch.constant.int 0
    %582 = torch.prim.ListConstruct %int0_820 : (!torch.int) -> !torch.list<int>
    %none_821 = torch.constant.none
    %none_822 = torch.constant.none
    %none_823 = torch.constant.none
    %false_824 = torch.constant.bool false
    %583 = torch.aten.new_zeros %573, %582, %none_821, %none_822, %none_823, %false_824 : !torch.vtensor<[1,192,14,14],f32>, !torch.list<int>, !torch.none, !torch.none, !torch.none, !torch.bool -> !torch.vtensor<[0],f32>
    %int-1_825 = torch.constant.int -1
    %584 = torch.aten.unsqueeze %574, %int-1_825 : !torch.vtensor<[192],f32>, !torch.int -> !torch.vtensor<[192,1],f32>
    %int-1_826 = torch.constant.int -1
    %585 = torch.aten.unsqueeze %584, %int-1_826 : !torch.vtensor<[192,1],f32>, !torch.int -> !torch.vtensor<[192,1,1],f32>
    %int-1_827 = torch.constant.int -1
    %586 = torch.aten.unsqueeze %579, %int-1_827 : !torch.vtensor<[192],f32>, !torch.int -> !torch.vtensor<[192,1],f32>
    %int-1_828 = torch.constant.int -1
    %587 = torch.aten.unsqueeze %586, %int-1_828 : !torch.vtensor<[192,1],f32>, !torch.int -> !torch.vtensor<[192,1,1],f32>
    %int1_829 = torch.constant.int 1
    %588 = torch.aten.sub.Tensor %573, %585, %int1_829 : !torch.vtensor<[1,192,14,14],f32>, !torch.vtensor<[192,1,1],f32>, !torch.int -> !torch.vtensor<[1,192,14,14],f32>
    %589 = torch.aten.mul.Tensor %588, %587 : !torch.vtensor<[1,192,14,14],f32>, !torch.vtensor<[192,1,1],f32> -> !torch.vtensor<[1,192,14,14],f32>
    %int-1_830 = torch.constant.int -1
    %590 = torch.aten.unsqueeze %arg99, %int-1_830 : !torch.vtensor<[192],f32>, !torch.int -> !torch.vtensor<[192,1],f32>
    %int-1_831 = torch.constant.int -1
    %591 = torch.aten.unsqueeze %590, %int-1_831 : !torch.vtensor<[192,1],f32>, !torch.int -> !torch.vtensor<[192,1,1],f32>
    %592 = torch.aten.mul.Tensor %589, %591 : !torch.vtensor<[1,192,14,14],f32>, !torch.vtensor<[192,1,1],f32> -> !torch.vtensor<[1,192,14,14],f32>
    %int-1_832 = torch.constant.int -1
    %593 = torch.aten.unsqueeze %arg100, %int-1_832 : !torch.vtensor<[192],f32>, !torch.int -> !torch.vtensor<[192,1],f32>
    %int-1_833 = torch.constant.int -1
    %594 = torch.aten.unsqueeze %593, %int-1_833 : !torch.vtensor<[192,1],f32>, !torch.int -> !torch.vtensor<[192,1,1],f32>
    %int1_834 = torch.constant.int 1
    %595 = torch.aten.add.Tensor %592, %594, %int1_834 : !torch.vtensor<[1,192,14,14],f32>, !torch.vtensor<[192,1,1],f32>, !torch.int -> !torch.vtensor<[1,192,14,14],f32>
    %float0.000000e00_835 = torch.constant.float 0.000000e+00
    %float6.000000e00_836 = torch.constant.float 6.000000e+00
    %596 = torch.aten.hardtanh %595, %float0.000000e00_835, %float6.000000e00_836 : !torch.vtensor<[1,192,14,14],f32>, !torch.float, !torch.float -> !torch.vtensor<[1,192,14,14],f32>
    %int0_837 = torch.constant.int 0
    %int0_838 = torch.constant.int 0
    %int0_839 = torch.constant.int 0
    %int0_840 = torch.constant.int 0
    %597 = torch.prim.ListConstruct %int0_837, %int0_838, %int0_839, %int0_840 : (!torch.int, !torch.int, !torch.int, !torch.int) -> !torch.list<int>
    %float0.000000e00_841 = torch.constant.float 0.000000e+00
    %598 = torch.aten.constant_pad_nd %596, %597, %float0.000000e00_841 : !torch.vtensor<[1,192,14,14],f32>, !torch.list<int>, !torch.float -> !torch.vtensor<[1,192,14,14],f32>
    %none_842 = torch.constant.none
    %int1_843 = torch.constant.int 1
    %int1_844 = torch.constant.int 1
    %599 = torch.prim.ListConstruct %int1_843, %int1_844 : (!torch.int, !torch.int) -> !torch.list<int>
    %int0_845 = torch.constant.int 0
    %int0_846 = torch.constant.int 0
    %600 = torch.prim.ListConstruct %int0_845, %int0_846 : (!torch.int, !torch.int) -> !torch.list<int>
    %int1_847 = torch.constant.int 1
    %int1_848 = torch.constant.int 1
    %601 = torch.prim.ListConstruct %int1_847, %int1_848 : (!torch.int, !torch.int) -> !torch.list<int>
    %false_849 = torch.constant.bool false
    %int0_850 = torch.constant.int 0
    %int0_851 = torch.constant.int 0
    %602 = torch.prim.ListConstruct %int0_850, %int0_851 : (!torch.int, !torch.int) -> !torch.list<int>
    %int1_852 = torch.constant.int 1
    %603 = torch.aten.convolution %598, %arg101, %none_842, %599, %600, %601, %false_849, %602, %int1_852 : !torch.vtensor<[1,192,14,14],f32>, !torch.vtensor<[64,192,1,1],f32>, !torch.none, !torch.list<int>, !torch.list<int>, !torch.list<int>, !torch.bool, !torch.list<int>, !torch.int -> !torch.vtensor<[1,64,14,14],f32>
    %int6_853 = torch.constant.int 6
    %604 = torch.prims.convert_element_type %arg102, %int6_853 : !torch.vtensor<[64],f32>, !torch.int -> !torch.vtensor<[64],f32>
    %int6_854 = torch.constant.int 6
    %605 = torch.prims.convert_element_type %arg103, %int6_854 : !torch.vtensor<[64],f32>, !torch.int -> !torch.vtensor<[64],f32>
    %float1.000000e-03_855 = torch.constant.float 1.000000e-03
    %int1_856 = torch.constant.int 1
    %606 = torch.aten.add.Scalar %605, %float1.000000e-03_855, %int1_856 : !torch.vtensor<[64],f32>, !torch.float, !torch.int -> !torch.vtensor<[64],f32>
    %607 = torch.aten.sqrt %606 : !torch.vtensor<[64],f32> -> !torch.vtensor<[64],f32>
    %608 = torch.aten.reciprocal %607 : !torch.vtensor<[64],f32> -> !torch.vtensor<[64],f32>
    %int1_857 = torch.constant.int 1
    %609 = torch.aten.mul.Scalar %608, %int1_857 : !torch.vtensor<[64],f32>, !torch.int -> !torch.vtensor<[64],f32>
    %int0_858 = torch.constant.int 0
    %610 = torch.prim.ListConstruct %int0_858 : (!torch.int) -> !torch.list<int>
    %none_859 = torch.constant.none
    %none_860 = torch.constant.none
    %none_861 = torch.constant.none
    %false_862 = torch.constant.bool false
    %611 = torch.aten.new_zeros %603, %610, %none_859, %none_860, %none_861, %false_862 : !torch.vtensor<[1,64,14,14],f32>, !torch.list<int>, !torch.none, !torch.none, !torch.none, !torch.bool -> !torch.vtensor<[0],f32>
    %int0_863 = torch.constant.int 0
    %612 = torch.prim.ListConstruct %int0_863 : (!torch.int) -> !torch.list<int>
    %none_864 = torch.constant.none
    %none_865 = torch.constant.none
    %none_866 = torch.constant.none
    %false_867 = torch.constant.bool false
    %613 = torch.aten.new_zeros %603, %612, %none_864, %none_865, %none_866, %false_867 : !torch.vtensor<[1,64,14,14],f32>, !torch.list<int>, !torch.none, !torch.none, !torch.none, !torch.bool -> !torch.vtensor<[0],f32>
    %int-1_868 = torch.constant.int -1
    %614 = torch.aten.unsqueeze %604, %int-1_868 : !torch.vtensor<[64],f32>, !torch.int -> !torch.vtensor<[64,1],f32>
    %int-1_869 = torch.constant.int -1
    %615 = torch.aten.unsqueeze %614, %int-1_869 : !torch.vtensor<[64,1],f32>, !torch.int -> !torch.vtensor<[64,1,1],f32>
    %int-1_870 = torch.constant.int -1
    %616 = torch.aten.unsqueeze %609, %int-1_870 : !torch.vtensor<[64],f32>, !torch.int -> !torch.vtensor<[64,1],f32>
    %int-1_871 = torch.constant.int -1
    %617 = torch.aten.unsqueeze %616, %int-1_871 : !torch.vtensor<[64,1],f32>, !torch.int -> !torch.vtensor<[64,1,1],f32>
    %int1_872 = torch.constant.int 1
    %618 = torch.aten.sub.Tensor %603, %615, %int1_872 : !torch.vtensor<[1,64,14,14],f32>, !torch.vtensor<[64,1,1],f32>, !torch.int -> !torch.vtensor<[1,64,14,14],f32>
    %619 = torch.aten.mul.Tensor %618, %617 : !torch.vtensor<[1,64,14,14],f32>, !torch.vtensor<[64,1,1],f32> -> !torch.vtensor<[1,64,14,14],f32>
    %int-1_873 = torch.constant.int -1
    %620 = torch.aten.unsqueeze %arg104, %int-1_873 : !torch.vtensor<[64],f32>, !torch.int -> !torch.vtensor<[64,1],f32>
    %int-1_874 = torch.constant.int -1
    %621 = torch.aten.unsqueeze %620, %int-1_874 : !torch.vtensor<[64,1],f32>, !torch.int -> !torch.vtensor<[64,1,1],f32>
    %622 = torch.aten.mul.Tensor %619, %621 : !torch.vtensor<[1,64,14,14],f32>, !torch.vtensor<[64,1,1],f32> -> !torch.vtensor<[1,64,14,14],f32>
    %int-1_875 = torch.constant.int -1
    %623 = torch.aten.unsqueeze %arg105, %int-1_875 : !torch.vtensor<[64],f32>, !torch.int -> !torch.vtensor<[64,1],f32>
    %int-1_876 = torch.constant.int -1
    %624 = torch.aten.unsqueeze %623, %int-1_876 : !torch.vtensor<[64,1],f32>, !torch.int -> !torch.vtensor<[64,1,1],f32>
    %int1_877 = torch.constant.int 1
    %625 = torch.aten.add.Tensor %622, %624, %int1_877 : !torch.vtensor<[1,64,14,14],f32>, !torch.vtensor<[64,1,1],f32>, !torch.int -> !torch.vtensor<[1,64,14,14],f32>
    %int0_878 = torch.constant.int 0
    %int0_879 = torch.constant.int 0
    %int0_880 = torch.constant.int 0
    %int0_881 = torch.constant.int 0
    %626 = torch.prim.ListConstruct %int0_878, %int0_879, %int0_880, %int0_881 : (!torch.int, !torch.int, !torch.int, !torch.int) -> !torch.list<int>
    %float0.000000e00_882 = torch.constant.float 0.000000e+00
    %627 = torch.aten.constant_pad_nd %625, %626, %float0.000000e00_882 : !torch.vtensor<[1,64,14,14],f32>, !torch.list<int>, !torch.float -> !torch.vtensor<[1,64,14,14],f32>
    %none_883 = torch.constant.none
    %int1_884 = torch.constant.int 1
    %int1_885 = torch.constant.int 1
    %628 = torch.prim.ListConstruct %int1_884, %int1_885 : (!torch.int, !torch.int) -> !torch.list<int>
    %int0_886 = torch.constant.int 0
    %int0_887 = torch.constant.int 0
    %629 = torch.prim.ListConstruct %int0_886, %int0_887 : (!torch.int, !torch.int) -> !torch.list<int>
    %int1_888 = torch.constant.int 1
    %int1_889 = torch.constant.int 1
    %630 = torch.prim.ListConstruct %int1_888, %int1_889 : (!torch.int, !torch.int) -> !torch.list<int>
    %false_890 = torch.constant.bool false
    %int0_891 = torch.constant.int 0
    %int0_892 = torch.constant.int 0
    %631 = torch.prim.ListConstruct %int0_891, %int0_892 : (!torch.int, !torch.int) -> !torch.list<int>
    %int1_893 = torch.constant.int 1
    %632 = torch.aten.convolution %627, %arg106, %none_883, %628, %629, %630, %false_890, %631, %int1_893 : !torch.vtensor<[1,64,14,14],f32>, !torch.vtensor<[384,64,1,1],f32>, !torch.none, !torch.list<int>, !torch.list<int>, !torch.list<int>, !torch.bool, !torch.list<int>, !torch.int -> !torch.vtensor<[1,384,14,14],f32>
    %int6_894 = torch.constant.int 6
    %633 = torch.prims.convert_element_type %arg107, %int6_894 : !torch.vtensor<[384],f32>, !torch.int -> !torch.vtensor<[384],f32>
    %int6_895 = torch.constant.int 6
    %634 = torch.prims.convert_element_type %arg108, %int6_895 : !torch.vtensor<[384],f32>, !torch.int -> !torch.vtensor<[384],f32>
    %float1.000000e-03_896 = torch.constant.float 1.000000e-03
    %int1_897 = torch.constant.int 1
    %635 = torch.aten.add.Scalar %634, %float1.000000e-03_896, %int1_897 : !torch.vtensor<[384],f32>, !torch.float, !torch.int -> !torch.vtensor<[384],f32>
    %636 = torch.aten.sqrt %635 : !torch.vtensor<[384],f32> -> !torch.vtensor<[384],f32>
    %637 = torch.aten.reciprocal %636 : !torch.vtensor<[384],f32> -> !torch.vtensor<[384],f32>
    %int1_898 = torch.constant.int 1
    %638 = torch.aten.mul.Scalar %637, %int1_898 : !torch.vtensor<[384],f32>, !torch.int -> !torch.vtensor<[384],f32>
    %int0_899 = torch.constant.int 0
    %639 = torch.prim.ListConstruct %int0_899 : (!torch.int) -> !torch.list<int>
    %none_900 = torch.constant.none
    %none_901 = torch.constant.none
    %none_902 = torch.constant.none
    %false_903 = torch.constant.bool false
    %640 = torch.aten.new_zeros %632, %639, %none_900, %none_901, %none_902, %false_903 : !torch.vtensor<[1,384,14,14],f32>, !torch.list<int>, !torch.none, !torch.none, !torch.none, !torch.bool -> !torch.vtensor<[0],f32>
    %int0_904 = torch.constant.int 0
    %641 = torch.prim.ListConstruct %int0_904 : (!torch.int) -> !torch.list<int>
    %none_905 = torch.constant.none
    %none_906 = torch.constant.none
    %none_907 = torch.constant.none
    %false_908 = torch.constant.bool false
    %642 = torch.aten.new_zeros %632, %641, %none_905, %none_906, %none_907, %false_908 : !torch.vtensor<[1,384,14,14],f32>, !torch.list<int>, !torch.none, !torch.none, !torch.none, !torch.bool -> !torch.vtensor<[0],f32>
    %int-1_909 = torch.constant.int -1
    %643 = torch.aten.unsqueeze %633, %int-1_909 : !torch.vtensor<[384],f32>, !torch.int -> !torch.vtensor<[384,1],f32>
    %int-1_910 = torch.constant.int -1
    %644 = torch.aten.unsqueeze %643, %int-1_910 : !torch.vtensor<[384,1],f32>, !torch.int -> !torch.vtensor<[384,1,1],f32>
    %int-1_911 = torch.constant.int -1
    %645 = torch.aten.unsqueeze %638, %int-1_911 : !torch.vtensor<[384],f32>, !torch.int -> !torch.vtensor<[384,1],f32>
    %int-1_912 = torch.constant.int -1
    %646 = torch.aten.unsqueeze %645, %int-1_912 : !torch.vtensor<[384,1],f32>, !torch.int -> !torch.vtensor<[384,1,1],f32>
    %int1_913 = torch.constant.int 1
    %647 = torch.aten.sub.Tensor %632, %644, %int1_913 : !torch.vtensor<[1,384,14,14],f32>, !torch.vtensor<[384,1,1],f32>, !torch.int -> !torch.vtensor<[1,384,14,14],f32>
    %648 = torch.aten.mul.Tensor %647, %646 : !torch.vtensor<[1,384,14,14],f32>, !torch.vtensor<[384,1,1],f32> -> !torch.vtensor<[1,384,14,14],f32>
    %int-1_914 = torch.constant.int -1
    %649 = torch.aten.unsqueeze %arg109, %int-1_914 : !torch.vtensor<[384],f32>, !torch.int -> !torch.vtensor<[384,1],f32>
    %int-1_915 = torch.constant.int -1
    %650 = torch.aten.unsqueeze %649, %int-1_915 : !torch.vtensor<[384,1],f32>, !torch.int -> !torch.vtensor<[384,1,1],f32>
    %651 = torch.aten.mul.Tensor %648, %650 : !torch.vtensor<[1,384,14,14],f32>, !torch.vtensor<[384,1,1],f32> -> !torch.vtensor<[1,384,14,14],f32>
    %int-1_916 = torch.constant.int -1
    %652 = torch.aten.unsqueeze %arg110, %int-1_916 : !torch.vtensor<[384],f32>, !torch.int -> !torch.vtensor<[384,1],f32>
…
er_view, !hal.buffer_view, !hal.buffer_view, !hal.buffer_view, !hal.buffer_view, !hal.buffer_view, !hal.buffer_view, !hal.buffer_view, !hal.buffer_view, !hal.buffer_view, !hal.buffer_view, !hal.buffer_view, !hal.buffer_view, !hal.buffer_view, !hal.buffer_view, !hal.buffer_view, !hal.buffer_view, !hal.buffer_view, !hal.buffer_view, !hal.buffer_view, !hal.buffer_view, !hal.buffer_view, !hal.buffer_view, !hal.buffer_view, !hal.buffer_view, !hal.buffer_view, !hal.buffer_view, !hal.buffer_view, !hal.buffer_view, !hal.buffer_view, !hal.buffer_view, !hal.buffer_view, !hal.buffer_view, !hal.buffer_view, !hal.buffer_view, !hal.buffer_view, !hal.buffer_view, !hal.buffer_view, !hal.buffer_view, !hal.buffer_view, !hal.buffer_view, !hal.buffer_view, !hal.buffer_view, !hal.buffer_view, !hal.buffer_view, !hal.buffer_view, !hal.buffer_view, !hal.buffer_view, !hal.buffer_view, !hal.buffer_view, !hal.buffer_view, !hal.buffer_view, !hal.buffer_view, !hal.buffer_view, !hal.buffer_view, !hal.buffer_view, !hal.buffer_view, !hal.buffer_view, !hal.buffer_view, !hal.buffer_view, !hal.buffer_view, !hal.buffer_view, !hal.buffer_view, !hal.buffer_view, !hal.buffer_view, !hal.buffer_view, !hal.buffer_view, !hal.buffer_view, !hal.buffer_view, !hal.buffer_view, !hal.buffer_view, !hal.buffer_view, !hal.buffer_view, !hal.buffer_view, !hal.buffer_view, !hal.buffer_view, !hal.buffer_view, !hal.buffer_view, !hal.buffer_view, !hal.buffer_view, !hal.buffer_view, !hal.buffer_view, !hal.buffer_view, !hal.buffer_view, !hal.buffer_view, !hal.buffer_view, !hal.buffer_view, !hal.buffer_view, !hal.buffer_view, !hal.buffer_view, !hal.buffer_view, !hal.buffer_view, !hal.buffer_view, !hal.buffer_view, !hal.buffer_view, !hal.buffer_view, !hal.buffer_view, !hal.buffer_view, !hal.buffer_view, !hal.buffer_view, !hal.buffer_view, !hal.buffer_view, !hal.buffer_view, !hal.buffer_view, !hal.buffer_view, !hal.buffer_view, !hal.buffer_view, !hal.buffer_view, !hal.buffer_view, !hal.buffer_view, !hal.buffer_view, !hal.buffer_view, !hal.buffer_view, !hal.buffer_view, !hal.buffer_view, !hal.buffer_view, !hal.buffer_view, !hal.buffer_view, !hal.buffer_view, !hal.buffer_view, !hal.buffer_view, !hal.buffer_view, !hal.buffer_view, !hal.buffer_view, !hal.buffer_view, !hal.buffer_view, !hal.buffer_view, !hal.buffer_view, !hal.buffer_view, !hal.buffer_view, !hal.buffer_view, !hal.buffer_view, !hal.buffer_view, !hal.buffer_view, !hal.buffer_view, !hal.buffer_view, !hal.buffer_view, !hal.buffer_view, !hal.buffer_view, !hal.buffer_view, !hal.buffer_view, !hal.buffer_view, !hal.buffer_view, !hal.buffer_view, !hal.buffer_view, !hal.buffer_view, !hal.buffer_view, !hal.buffer_view, !hal.buffer_view, !hal.buffer_view, !hal.buffer_view, !hal.buffer_view, !hal.buffer_view, !hal.buffer_view, !hal.buffer_view, !hal.buffer_view, !hal.buffer_view, !hal.buffer_view, !hal.buffer_view, !hal.buffer_view, !hal.buffer_view, !hal.buffer_view, !hal.buffer_view, !hal.buffer_view, !hal.buffer_view, !hal.buffer_view, !hal.buffer_view, !hal.buffer_view, !hal.buffer_view, !hal.buffer_view, !hal.buffer_view, !hal.buffer_view, !hal.buffer_view, !hal.buffer_view, !hal.buffer_view, !hal.buffer_view, !hal.buffer_view, !hal.buffer_view, !hal.buffer_view, !hal.buffer_view, !hal.buffer_view, !hal.buffer_view, !hal.buffer_view, !hal.buffer_view, !hal.buffer_view, !hal.buffer_view, !hal.buffer_view, !hal.buffer_view, !hal.buffer_view, !hal.buffer_view, !hal.buffer_view, !hal.buffer_view, !hal.buffer_view, !hal.buffer_view, !hal.buffer_view, !hal.buffer_view, !hal.buffer_view, !hal.buffer_view, !hal.buffer_view, !hal.buffer_view, !hal.buffer_view, !hal.buffer_view, !hal.buffer_view, !hal.buffer_view, !hal.buffer_view, !hal.buffer_view, !hal.buffer_view, !hal.buffer_view, !hal.buffer_view, !hal.buffer_view, !hal.buffer_view, !hal.buffer_view, !hal.buffer_view, !hal.buffer_view, !hal.buffer_view, !hal.buffer_view, !hal.buffer_view, !hal.buffer_view, !hal.buffer_view, !hal.buffer_view, !hal.buffer_view, !hal.buffer_view, !hal.buffer_view, !hal.buffer_view, !hal.buffer_view, !hal.buffer_view, !hal.buffer_view, !hal.buffer_view, !hal.buffer_view, !hal.buffer_view, !hal.buffer_view, !hal.buffer_view, !hal.buffer_view, !hal.buffer_view, !hal.buffer_view, !hal.buffer_view, !hal.buffer_view, !hal.buffer_view, !hal.buffer_view, !hal.buffer_view, !hal.buffer_view, !hal.buffer_view, !hal.buffer_view, !hal.buffer_view, !hal.buffer_view, !hal.buffer_view, !hal.buffer_view, !hal.buffer_view, !hal.buffer_view, !hal.buffer_view, !hal.buffer_view, !hal.buffer_view, !hal.buffer_view, !hal.buffer_view, !hal.buffer_view, !hal.buffer_view, !hal.buffer_view, !hal.buffer_view, !hal.buffer_view, !hal.buffer_view, !hal.buffer_view, !hal.buffer_view, !hal.buffer_view, !hal.buffer_view, !hal.buffer_view, !hal.buffer_view, !hal.buffer_view, !hal.buffer_view, !hal.buffer_view, !hal.buffer_view, !hal.buffer_view, !hal.buffer_view, !hal.buffer_view, !hal.buffer_view, !hal.buffer_view, !hal.buffer_view, !hal.buffer_view, !hal.buffer_view, !hal.buffer_view, !hal.buffer_view, !hal.buffer_view, !hal.buffer_view, !hal.buffer_view, !hal.buffer_view, !hal.buffer_view, !hal.buffer_view, !hal.buffer_view, !hal.buffer_view, !hal.buffer_view, !hal.buffer_view, !hal.buffer_view, !hal.buffer_view, !hal.buffer_view, !hal.buffer_view, !hal.buffer_view, !hal.buffer_view, !hal.buffer_view, !hal.buffer_view, !hal.buffer_view, !hal.buffer_view, !hal.buffer_view, !hal.buffer_view, !hal.buffer_view, !hal.buffer_view, !hal.buffer_view, !hal.buffer_view, !hal.buffer_view, !hal.buffer_view, !hal.buffer_view, !hal.buffer_view, !hal.buffer_view, !hal.buffer_view, !hal.buffer_view, !hal.buffer_view, !hal.buffer_view, !hal.buffer_view, !hal.buffer_view, !hal.buffer_view, !hal.buffer_view, !hal.buffer_view, !hal.buffer_view, !hal.buffer_view, !hal.buffer_view, !hal.buffer_view, !hal.buffer_view, !hal.buffer_view, !hal.buffer_view, !hal.buffer_view, !hal.buffer_view, !hal.buffer_view, !hal.buffer_view, !hal.buffer_view, !hal.buffer_view, !hal.buffer_view, !hal.buffer_view, !hal.buffer_view, !hal.buffer_view, !hal.buffer_view, !hal.buffer_view, !hal.buffer_view, !hal.buffer_view, !hal.buffer_view, !hal.buffer_view, !hal.buffer_view, !hal.buffer_view, !hal.buffer_view, !hal.buffer_view, !hal.buffer_view, !hal.buffer_view, !hal.buffer_view, !hal.buffer_view, !hal.buffer_view, !hal.buffer_view, !hal.buffer_view, !hal.buffer_view, !hal.buffer_view, !hal.buffer_view, !hal.buffer_view, !hal.buffer_view, !hal.buffer_view, !hal.buffer_view, !hal.buffer_view, !hal.buffer_view, !hal.buffer_view, !hal.buffer_view, !hal.buffer_view, !hal.buffer_view, !hal.buffer_view, !hal.buffer_view, !hal.buffer_view, !hal.buffer_view, !hal.buffer_view, !hal.buffer_view, !hal.buffer_view, !hal.buffer_view, !hal.buffer_view, !hal.buffer_view, !hal.buffer_view, !hal.buffer_view, !hal.buffer_view, !hal.buffer_view, !hal.buffer_view, !hal.buffer_view, !hal.buffer_view, !hal.buffer_view, !hal.buffer_view, !hal.buffer_view, !hal.buffer_view, !hal.buffer_view, !hal.buffer_view, !hal.buffer_view, !hal.buffer_view, !hal.buffer_view, !hal.buffer_view, !hal.buffer_view, !hal.buffer_view, !hal.buffer_view, !hal.buffer_view, !hal.buffer_view, !hal.buffer_view, !hal.buffer_view, !hal.buffer_view, !hal.buffer_view, !hal.buffer_view, !hal.buffer_view, !hal.buffer_view, !hal.buffer_view, !hal.buffer_view, !hal.buffer_view, !hal.buffer_view, !hal.buffer_view, !hal.buffer_view, !hal.buffer_view, !hal.buffer_view, !hal.buffer_view, !hal.buffer_view, !hal.buffer_view
  }
  util.func public @main(%arg0: !hal.buffer_view, %arg1: !hal.buffer_view, %arg2: !hal.buffer_view, %arg3: !hal.buffer_view, %arg4: !hal.buffer_view, %arg5: !hal.buffer_view, %arg6: !hal.buffer_view, %arg7: !hal.buffer_view, %arg8: !hal.buffer_view, %arg9: !hal.buffer_view, %arg10: !hal.buffer_view, %arg11: !hal.buffer_view, %arg12: !hal.buffer_view, %arg13: !hal.buffer_view, %arg14: !hal.buffer_view, %arg15: !hal.buffer_view, %arg16: !hal.buffer_view, %arg17: !hal.buffer_view, %arg18: !hal.buffer_view, %arg19: !hal.buffer_view, %arg20: !hal.buffer_view, %arg21: !hal.buffer_view, %arg22: !hal.buffer_view, %arg23: !hal.buffer_view, %arg24: !hal.buffer_view, %arg25: !hal.buffer_view, %arg26: !hal.buffer_view, %arg27: !hal.buffer_view, %arg28: !hal.buffer_view, %arg29: !hal.buffer_view, %arg30: !hal.buffer_view, %arg31: !hal.buffer_view, %arg32: !hal.buffer_view, %arg33: !hal.buffer_view, %arg34: !hal.buffer_view, %arg35: !hal.buffer_view, %arg36: !hal.buffer_view, %arg37: !hal.buffer_view, %arg38: !hal.buffer_view, %arg39: !hal.buffer_view, %arg40: !hal.buffer_view, %arg41: !hal.buffer_view, %arg42: !hal.buffer_view, %arg43: !hal.buffer_view, %arg44: !hal.buffer_view, %arg45: !hal.buffer_view, %arg46: !hal.buffer_view, %arg47: !hal.buffer_view, %arg48: !hal.buffer_view, %arg49: !hal.buffer_view, %arg50: !hal.buffer_view, %arg51: !hal.buffer_view, %arg52: !hal.buffer_view, %arg53: !hal.buffer_view, %arg54: !hal.buffer_view, %arg55: !hal.buffer_view, %arg56: !hal.buffer_view, %arg57: !hal.buffer_view, %arg58: !hal.buffer_view, %arg59: !hal.buffer_view, %arg60: !hal.buffer_view, %arg61: !hal.buffer_view, %arg62: !hal.buffer_view, %arg63: !hal.buffer_view, %arg64: !hal.buffer_view, %arg65: !hal.buffer_view, %arg66: !hal.buffer_view, %arg67: !hal.buffer_view, %arg68: !hal.buffer_view, %arg69: !hal.buffer_view, %arg70: !hal.buffer_view, %arg71: !hal.buffer_view, %arg72: !hal.buffer_view, %arg73: !hal.buffer_view, %arg74: !hal.buffer_view, %arg75: !hal.buffer_view, %arg76: !hal.buffer_view, %arg77: !hal.buffer_view, %arg78: !hal.buffer_view, %arg79: !hal.buffer_view, %arg80: !hal.buffer_view, %arg81: !hal.buffer_view, %arg82: !hal.buffer_view, %arg83: !hal.buffer_view, %arg84: !hal.buffer_view, %arg85: !hal.buffer_view, %arg86: !hal.buffer_view, %arg87: !hal.buffer_view, %arg88: !hal.buffer_view, %arg89: !hal.buffer_view, %arg90: !hal.buffer_view, %arg91: !hal.buffer_view, %arg92: !hal.buffer_view, %arg93: !hal.buffer_view, %arg94: !hal.buffer_view, %arg95: !hal.buffer_view, %arg96: !hal.buffer_view, %arg97: !hal.buffer_view, %arg98: !hal.buffer_view, %arg99: !hal.buffer_view, %arg100: !hal.buffer_view, %arg101: !hal.buffer_view, %arg102: !hal.buffer_view, %arg103: !hal.buffer_view, %arg104: !hal.buffer_view, %arg105: !hal.buffer_view, %arg106: !hal.buffer_view, %arg107: !hal.buffer_view, %arg108: !hal.buffer_view, %arg109: !hal.buffer_view, %arg110: !hal.buffer_view, %arg111: !hal.buffer_view, %arg112: !hal.buffer_view, %arg113: !hal.buffer_view, %arg114: !hal.buffer_view, %arg115: !hal.buffer_view, %arg116: !hal.buffer_view, %arg117: !hal.buffer_view, %arg118: !hal.buffer_view, %arg119: !hal.buffer_view, %arg120: !hal.buffer_view, %arg121: !hal.buffer_view, %arg122: !hal.buffer_view, %arg123: !hal.buffer_view, %arg124: !hal.buffer_view, %arg125: !hal.buffer_view, %arg126: !hal.buffer_view, %arg127: !hal.buffer_view, %arg128: !hal.buffer_view, %arg129: !hal.buffer_view, %arg130: !hal.buffer_view, %arg131: !hal.buffer_view, %arg132: !hal.buffer_view, %arg133: !hal.buffer_view, %arg134: !hal.buffer_view, %arg135: !hal.buffer_view, %arg136: !hal.buffer_view, %arg137: !hal.buffer_view, %arg138: !hal.buffer_view, %arg139: !hal.buffer_view, %arg140: !hal.buffer_view, %arg141: !hal.buffer_view, %arg142: !hal.buffer_view, %arg143: !hal.buffer_view, %arg144: !hal.buffer_view, %arg145: !hal.buffer_view, %arg146: !hal.buffer_view, %arg147: !hal.buffer_view, %arg148: !hal.buffer_view, %arg149: !hal.buffer_view, %arg150: !hal.buffer_view, %arg151: !hal.buffer_view, %arg152: !hal.buffer_view, %arg153: !hal.buffer_view, %arg154: !hal.buffer_view, %arg155: !hal.buffer_view, %arg156: !hal.buffer_view, %arg157: !hal.buffer_view, %arg158: !hal.buffer_view, %arg159: !hal.buffer_view, %arg160: !hal.buffer_view, %arg161: !hal.buffer_view, %arg162: !hal.buffer_view, %arg163: !hal.buffer_view, %arg164: !hal.buffer_view, %arg165: !hal.buffer_view, %arg166: !hal.buffer_view, %arg167: !hal.buffer_view, %arg168: !hal.buffer_view, %arg169: !hal.buffer_view, %arg170: !hal.buffer_view, %arg171: !hal.buffer_view, %arg172: !hal.buffer_view, %arg173: !hal.buffer_view, %arg174: !hal.buffer_view, %arg175: !hal.buffer_view, %arg176: !hal.buffer_view, %arg177: !hal.buffer_view, %arg178: !hal.buffer_view, %arg179: !hal.buffer_view, %arg180: !hal.buffer_view, %arg181: !hal.buffer_view, %arg182: !hal.buffer_view, %arg183: !hal.buffer_view, %arg184: !hal.buffer_view, %arg185: !hal.buffer_view, %arg186: !hal.buffer_view, %arg187: !hal.buffer_view, %arg188: !hal.buffer_view, %arg189: !hal.buffer_view, %arg190: !hal.buffer_view, %arg191: !hal.buffer_view, %arg192: !hal.buffer_view, %arg193: !hal.buffer_view, %arg194: !hal.buffer_view, %arg195: !hal.buffer_view, %arg196: !hal.buffer_view, %arg197: !hal.buffer_view, %arg198: !hal.buffer_view, %arg199: !hal.buffer_view, %arg200: !hal.buffer_view, %arg201: !hal.buffer_view, %arg202: !hal.buffer_view, %arg203: !hal.buffer_view, %arg204: !hal.buffer_view, %arg205: !hal.buffer_view, %arg206: !hal.buffer_view, %arg207: !hal.buffer_view, %arg208: !hal.buffer_view, %arg209: !hal.buffer_view, %arg210: !hal.buffer_view, %arg211: !hal.buffer_view, %arg212: !hal.buffer_view, %arg213: !hal.buffer_view, %arg214: !hal.buffer_view, %arg215: !hal.buffer_view, %arg216: !hal.buffer_view, %arg217: !hal.buffer_view, %arg218: !hal.buffer_view, %arg219: !hal.buffer_view, %arg220: !hal.buffer_view, %arg221: !hal.buffer_view, %arg222: !hal.buffer_view, %arg223: !hal.buffer_view, %arg224: !hal.buffer_view, %arg225: !hal.buffer_view, %arg226: !hal.buffer_view, %arg227: !hal.buffer_view, %arg228: !hal.buffer_view, %arg229: !hal.buffer_view, %arg230: !hal.buffer_view, %arg231: !hal.buffer_view, %arg232: !hal.buffer_view, %arg233: !hal.buffer_view, %arg234: !hal.buffer_view, %arg235: !hal.buffer_view, %arg236: !hal.buffer_view, %arg237: !hal.buffer_view, %arg238: !hal.buffer_view, %arg239: !hal.buffer_view, %arg240: !hal.buffer_view, %arg241: !hal.buffer_view, %arg242: !hal.buffer_view, %arg243: !hal.buffer_view, %arg244: !hal.buffer_view, %arg245: !hal.buffer_view, %arg246: !hal.buffer_view, %arg247: !hal.buffer_view, %arg248: !hal.buffer_view, %arg249: !hal.buffer_view, %arg250: !hal.buffer_view, %arg251: !hal.buffer_view, %arg252: !hal.buffer_view, %arg253: !hal.buffer_view, %arg254: !hal.buffer_view, %arg255: !hal.buffer_view, %arg256: !hal.buffer_view, %arg257: !hal.buffer_view, %arg258: !hal.buffer_view, %arg259: !hal.buffer_view, %arg260: !hal.buffer_view, %arg261: !hal.buffer_view, %arg262: !hal.buffer_view) -> (!hal.buffer_view, !hal.buffer_view, !hal.buffer_view, !hal.buffer_view, !hal.buffer_view, !hal.buffer_view, !hal.buffer_view, !hal.buffer_view, !hal.buffer_view, !hal.buffer_view, !hal.buffer_view, !hal.buffer_view, !hal.buffer_view, !hal.buffer_view, !hal.buffer_view, !hal.buffer_view, !hal.buffer_view, !hal.buffer_view, !hal.buffer_view, !hal.buffer_view, !hal.buffer_view, !hal.buffer_view, !hal.buffer_view, !hal.buffer_view, !hal.buffer_view, !hal.buffer_view, !hal.buffer_view, !hal.buffer_view, !hal.buffer_view, !hal.buffer_view, !hal.buffer_view, !hal.buffer_view, !hal.buffer_view, !hal.buffer_view, !hal.buffer_view, !hal.buffer_view, !hal.buffer_view, !hal.buffer_view, !hal.buffer_view, !hal.buffer_view, !hal.buffer_view, !hal.buffer_view, !hal.buffer_view, !hal.buffer_view, !hal.buffer_view, !hal.buffer_view, !hal.buffer_view, !hal.buffer_view, !hal.buffer_view, !hal.buffer_view, !hal.buffer_view, !hal.buffer_view, !hal.buffer_view, !hal.buffer_view, !hal.buffer_view, !hal.buffer_view, !hal.buffer_view, !hal.buffer_view, !hal.buffer_view, !hal.buffer_view, !hal.buffer_view, !hal.buffer_view, !hal.buffer_view, !hal.buffer_view, !hal.buffer_view, !hal.buffer_view, !hal.buffer_view, !hal.buffer_view, !hal.buffer_view, !hal.buffer_view, !hal.buffer_view, !hal.buffer_view, !hal.buffer_view, !hal.buffer_view, !hal.buffer_view, !hal.buffer_view, !hal.buffer_view, !hal.buffer_view, !hal.buffer_view, !hal.buffer_view, !hal.buffer_view, !hal.buffer_view, !hal.buffer_view, !hal.buffer_view, !hal.buffer_view, !hal.buffer_view, !hal.buffer_view, !hal.buffer_view, !hal.buffer_view, !hal.buffer_view, !hal.buffer_view, !hal.buffer_view, !hal.buffer_view, !hal.buffer_view, !hal.buffer_view, !hal.buffer_view, !hal.buffer_view, !hal.buffer_view, !hal.buffer_view, !hal.buffer_view, !hal.buffer_view, !hal.buffer_view, !hal.buffer_view, !hal.buffer_view, !hal.buffer_view, !hal.buffer_view, !hal.buffer_view, !hal.buffer_view, !hal.buffer_view, !hal.buffer_view, !hal.buffer_view, !hal.buffer_view, !hal.buffer_view, !hal.buffer_view, !hal.buffer_view, !hal.buffer_view, !hal.buffer_view, !hal.buffer_view, !hal.buffer_view, !hal.buffer_view, !hal.buffer_view, !hal.buffer_view, !hal.buffer_view, !hal.buffer_view, !hal.buffer_view, !hal.buffer_view, !hal.buffer_view, !hal.buffer_view, !hal.buffer_view, !hal.buffer_view, !hal.buffer_view, !hal.buffer_view, !hal.buffer_view, !hal.buffer_view, !hal.buffer_view, !hal.buffer_view, !hal.buffer_view, !hal.buffer_view, !hal.buffer_view, !hal.buffer_view, !hal.buffer_view, !hal.buffer_view, !hal.buffer_view, !hal.buffer_view, !hal.buffer_view, !hal.buffer_view, !hal.buffer_view, !hal.buffer_view, !hal.buffer_view, !hal.buffer_view, !hal.buffer_view, !hal.buffer_view, !hal.buffer_view, !hal.buffer_view, !hal.buffer_view, !hal.buffer_view, !hal.buffer_view, !hal.buffer_view, !hal.buffer_view, !hal.buffer_view, !hal.buffer_view, !hal.buffer_view, !hal.buffer_view, !hal.buffer_view, !hal.buffer_view, !hal.buffer_view, !hal.buffer_view, !hal.buffer_view, !hal.buffer_view, !hal.buffer_view, !hal.buffer_view, !hal.buffer_view, !hal.buffer_view, !hal.buffer_view, !hal.buffer_view, !hal.buffer_view, !hal.buffer_view, !hal.buffer_view, !hal.buffer_view, !hal.buffer_view, !hal.buffer_view, !hal.buffer_view, !hal.buffer_view, !hal.buffer_view, !hal.buffer_view, !hal.buffer_view, !hal.buffer_view, !hal.buffer_view, !hal.buffer_view, !hal.buffer_view, !hal.buffer_view, !hal.buffer_view, !hal.buffer_view, !hal.buffer_view, !hal.buffer_view, !hal.buffer_view, !hal.buffer_view, !hal.buffer_view, !hal.buffer_view, !hal.buffer_view, !hal.buffer_view, !hal.buffer_view, !hal.buffer_view, !hal.buffer_view, !hal.buffer_view, !hal.buffer_view, !hal.buffer_view, !hal.buffer_view, !hal.buffer_view, !hal.buffer_view, !hal.buffer_view, !hal.buffer_view, !hal.buffer_view, !hal.buffer_view, !hal.buffer_view, !hal.buffer_view, !hal.buffer_view, !hal.buffer_view, !hal.buffer_view, !hal.buffer_view, !hal.buffer_view, !hal.buffer_view, !hal.buffer_view, !hal.buffer_view, !hal.buffer_view, !hal.buffer_view, !hal.buffer_view, !hal.buffer_view, !hal.buffer_view, !hal.buffer_view, !hal.buffer_view, !hal.buffer_view, !hal.buffer_view, !hal.buffer_view, !hal.buffer_view, !hal.buffer_view, !hal.buffer_view, !hal.buffer_view, !hal.buffer_view, !hal.buffer_view, !hal.buffer_view, !hal.buffer_view, !hal.buffer_view, !hal.buffer_view, !hal.buffer_view, !hal.buffer_view, !hal.buffer_view, !hal.buffer_view, !hal.buffer_view, !hal.buffer_view, !hal.buffer_view, !hal.buffer_view, !hal.buffer_view, !hal.buffer_view, !hal.buffer_view, !hal.buffer_view, !hal.buffer_view, !hal.buffer_view, !hal.buffer_view, !hal.buffer_view, !hal.buffer_view, !hal.buffer_view, !hal.buffer_view, !hal.buffer_view, !hal.buffer_view, !hal.buffer_view, !hal.buffer_view, !hal.buffer_view, !hal.buffer_view, !hal.buffer_view, !hal.buffer_view, !hal.buffer_view, !hal.buffer_view, !hal.buffer_view, !hal.buffer_view, !hal.buffer_view, !hal.buffer_view, !hal.buffer_view, !hal.buffer_view, !hal.buffer_view, !hal.buffer_view, !hal.buffer_view, !hal.buffer_view, !hal.buffer_view, !hal.buffer_view, !hal.buffer_view, !hal.buffer_view, !hal.buffer_view, !hal.buffer_view, !hal.buffer_view, !hal.buffer_view, !hal.buffer_view, !hal.buffer_view, !hal.buffer_view, !hal.buffer_view, !hal.buffer_view, !hal.buffer_view, !hal.buffer_view, !hal.buffer_view, !hal.buffer_view, !hal.buffer_view, !hal.buffer_view, !hal.buffer_view, !hal.buffer_view, !hal.buffer_view, !hal.buffer_view, !hal.buffer_view, !hal.buffer_view, !hal.buffer_view, !hal.buffer_view, !hal.buffer_view, !hal.buffer_view, !hal.buffer_view, !hal.buffer_view, !hal.buffer_view, !hal.buffer_view, !hal.buffer_view, !hal.buffer_view, !hal.buffer_view, !hal.buffer_view, !hal.buffer_view, !hal.buffer_view, !hal.buffer_view, !hal.buffer_view, !hal.buffer_view, !hal.buffer_view, !hal.buffer_view, !hal.buffer_view, !hal.buffer_view, !hal.buffer_view, !hal.buffer_view, !hal.buffer_view, !hal.buffer_view, !hal.buffer_view, !hal.buffer_view, !hal.buffer_view, !hal.buffer_view, !hal.buffer_view, !hal.buffer_view, !hal.buffer_view, !hal.buffer_view, !hal.buffer_view, !hal.buffer_view, !hal.buffer_view, !hal.buffer_view, !hal.buffer_view, !hal.buffer_view, !hal.buffer_view, !hal.buffer_view, !hal.buffer_view, !hal.buffer_view, !hal.buffer_view, !hal.buffer_view, !hal.buffer_view, !hal.buffer_view, !hal.buffer_view, !hal.buffer_view, !hal.buffer_view, !hal.buffer_view, !hal.buffer_view, !hal.buffer_view, !hal.buffer_view, !hal.buffer_view, !hal.buffer_view, !hal.buffer_view, !hal.buffer_view, !hal.buffer_view, !hal.buffer_view, !hal.buffer_view, !hal.buffer_view, !hal.buffer_view, !hal.buffer_view, !hal.buffer_view, !hal.buffer_view, !hal.buffer_view, !hal.buffer_view, !hal.buffer_view, !hal.buffer_view, !hal.buffer_view, !hal.buffer_view, !hal.buffer_view, !hal.buffer_view, !hal.buffer_view, !hal.buffer_view, !hal.buffer_view, !hal.buffer_view, !hal.buffer_view, !hal.buffer_view, !hal.buffer_view, !hal.buffer_view, !hal.buffer_view, !hal.buffer_view, !hal.buffer_view, !hal.buffer_view, !hal.buffer_view, !hal.buffer_view, !hal.buffer_view, !hal.buffer_view, !hal.buffer_view, !hal.buffer_view, !hal.buffer_view, !hal.buffer_view, !hal.buffer_view, !hal.buffer_view, !hal.buffer_view, !hal.buffer_view, !hal.buffer_view, !hal.buffer_view, !hal.buffer_view, !hal.buffer_view, !hal.buffer_view, !hal.buffer_view, !hal.buffer_view, !hal.buffer_view, !hal.buffer_view, !hal.buffer_view, !hal.buffer_view, !hal.buffer_view, !hal.buffer_view, !hal.buffer_view, !hal.buffer_view, !hal.buffer_view, !hal.buffer_view, !hal.buffer_view, !hal.buffer_view, !hal.buffer_view, !hal.buffer_view, !hal.buffer_view, !hal.buffer_view, !hal.buffer_view, !hal.buffer_view, !hal.buffer_view, !hal.buffer_view, !hal.buffer_view, !hal.buffer_view, !hal.buffer_view, !hal.buffer_view, !hal.buffer_view, !hal.buffer_view, !hal.buffer_view, !hal.buffer_view, !hal.buffer_view, !hal.buffer_view, !hal.buffer_view, !hal.buffer_view, !hal.buffer_view, !hal.buffer_view, !hal.buffer_view, !hal.buffer_view, !hal.buffer_view, !hal.buffer_view, !hal.buffer_view, !hal.buffer_view, !hal.buffer_view) attributes {iree.abi.stub} {
    %0 = util.null : !hal.fence
    %c-1_i32 = arith.constant -1 : i32
    %c0 = arith.constant 0 : index
    %device_0 = hal.devices.get %c0 : !hal.device
    %fence = hal.fence.create device(%device_0 : !hal.device) flags("None") : !hal.fence
    %1:454 = util.call @main$async(%arg0, %arg1, %arg2, %arg3, %arg4, %arg5, %arg6, %arg7, %arg8, %arg9, %arg10, %arg11, %arg12, %arg13, %arg14, %arg15, %arg16, %arg17, %arg18, %arg19, %arg20, %arg21, %arg22, %arg23, %arg24, %arg25, %arg26, %arg27, %arg28, %arg29, %arg30, %arg31, %arg32, %arg33, %arg34, %arg35, %arg36, %arg37, %arg38, %arg39, %arg40, %arg41, %arg42, %arg43, %arg44, %arg45, %arg46, %arg47, %arg48, %arg49, %arg50, %arg51, %arg52, %arg53, %arg54, %arg55, %arg56, %arg57, %arg58, %arg59, %arg60, %arg61, %arg62, %arg63, %arg64, %arg65, %arg66, %arg67, %arg68, %arg69, %arg70, %arg71, %arg72, %arg73, %arg74, %arg75, %arg76, %arg77, %arg78, %arg79, %arg80, %arg81, %arg82, %arg83, %arg84, %arg85, %arg86, %arg87, %arg88, %arg89, %arg90, %arg91, %arg92, %arg93, %arg94, %arg95, %arg96, %arg97, %arg98, %arg99, %arg100, %arg101, %arg102, %arg103, %arg104, %arg105, %arg106, %arg107, %arg108, %arg109, %arg110, %arg111, %arg112, %arg113, %arg114, %arg115, %arg116, %arg117, %arg118, %arg119, %arg120, %arg121, %arg122, %arg123, %arg124, %arg125, %arg126, %arg127, %arg128, %arg129, %arg130, %arg131, %arg132, %arg133, %arg134, %arg135, %arg136, %arg137, %arg138, %arg139, %arg140, %arg141, %arg142, %arg143, %arg144, %arg145, %arg146, %arg147, %arg148, %arg149, %arg150, %arg151, %arg152, %arg153, %arg154, %arg155, %arg156, %arg157, %arg158, %arg159, %arg160, %arg161, %arg162, %arg163, %arg164, %arg165, %arg166, %arg167, %arg168, %arg169, %arg170, %arg171, %arg172, %arg173, %arg174, %arg175, %arg176, %arg177, %arg178, %arg179, %arg180, %arg181, %arg182, %arg183, %arg184, %arg185, %arg186, %arg187, %arg188, %arg189, %arg190, %arg191, %arg192, %arg193, %arg194, %arg195, %arg196, %arg197, %arg198, %arg199, %arg200, %arg201, %arg202, %arg203, %arg204, %arg205, %arg206, %arg207, %arg208, %arg209, %arg210, %arg211, %arg212, %arg213, %arg214, %arg215, %arg216, %arg217, %arg218, %arg219, %arg220, %arg221, %arg222, %arg223, %arg224, %arg225, %arg226, %arg227, %arg228, %arg229, %arg230, %arg231, %arg232, %arg233, %arg234, %arg235, %arg236, %arg237, %arg238, %arg239, %arg240, %arg241, %arg242, %arg243, %arg244, %arg245, %arg246, %arg247, %arg248, %arg249, %arg250, %arg251, %arg252, %arg253, %arg254, %arg255, %arg256, %arg257, %arg258, %arg259, %arg260, %arg261, %arg262, %0, %fence) : (!hal.buffer_view, !hal.buffer_view, !hal.buffer_view, !hal.buffer_view, !hal.buffer_view, !hal.buffer_view, !hal.buffer_view, !hal.buffer_view, !hal.buffer_view, !hal.buffer_view, !hal.buffer_view, !hal.buffer_view, !hal.buffer_view, !hal.buffer_view, !hal.buffer_view, !hal.buffer_view, !hal.buffer_view, !hal.buffer_view, !hal.buffer_view, !hal.buffer_view, !hal.buffer_view, !hal.buffer_view, !hal.buffer_view, !hal.buffer_view, !hal.buffer_view, !hal.buffer_view, !hal.buffer_view, !hal.buffer_view, !hal.buffer_view, !hal.buffer_view, !hal.buffer_view, !hal.buffer_view, !hal.buffer_view, !hal.buffer_view, !hal.buffer_view, !hal.buffer_view, !hal.buffer_view, !hal.buffer_view, !hal.buffer_view, !hal.buffer_view, !hal.buffer_view, !hal.buffer_view, !hal.buffer_view, !hal.buffer_view, !hal.buffer_view, !hal.buffer_view, !hal.buffer_view, !hal.buffer_view, !hal.buffer_view, !hal.buffer_view, !hal.buffer_view, !hal.buffer_view, !hal.buffer_view, !hal.buffer_view, !hal.buffer_view, !hal.buffer_view, !hal.buffer_view, !hal.buffer_view, !hal.buffer_view, !hal.buffer_view, !hal.buffer_view, !hal.buffer_view, !hal.buffer_view, !hal.buffer_view, !hal.buffer_view, !hal.buffer_view, !hal.buffer_view, !hal.buffer_view, !hal.buffer_view, !hal.buffer_view, !hal.buffer_view, !hal.buffer_view, !hal.buffer_view, !hal.buffer_view, !hal.buffer_view, !hal.buffer_view, !hal.buffer_view, !hal.buffer_view, !hal.buffer_view, !hal.buffer_view, !hal.buffer_view, !hal.buffer_view, !hal.buffer_view, !hal.buffer_view, !hal.buffer_view, !hal.buffer_view, !hal.buffer_view, !hal.buffer_view, !hal.buffer_view, !hal.buffer_view, !hal.buffer_view, !hal.buffer_view, !hal.buffer_view, !hal.buffer_view, !hal.buffer_view, !hal.buffer_view, !hal.buffer_view, !hal.buffer_view, !hal.buffer_view, !hal.buffer_view, !hal.buffer_view, !hal.buffer_view, !hal.buffer_view, !hal.buffer_view, !hal.buffer_view, !hal.buffer_view, !hal.buffer_view, !hal.buffer_view, !hal.buffer_view, !hal.buffer_view, !hal.buffer_view, !hal.buffer_view, !hal.buffer_view, !hal.buffer_view, !hal.buffer_view, !hal.buffer_view, !hal.buffer_view, !hal.buffer_view, !hal.buffer_view, !hal.buffer_view, !hal.buffer_view, !hal.buffer_view, !hal.buffer_view, !hal.buffer_view, !hal.buffer_view, !hal.buffer_view, !hal.buffer_view, !hal.buffer_view, !hal.buffer_view, !hal.buffer_view, !hal.buffer_view, !hal.buffer_view, !hal.buffer_view, !hal.buffer_view, !hal.buffer_view, !hal.buffer_view, !hal.buffer_view, !hal.buffer_view, !hal.buffer_view, !hal.buffer_view, !hal.buffer_view, !hal.buffer_view, !hal.buffer_view, !hal.buffer_view, !hal.buffer_view, !hal.buffer_view, !hal.buffer_view, !hal.buffer_view, !hal.buffer_view, !hal.buffer_view, !hal.buffer_view, !hal.buffer_view, !hal.buffer_view, !hal.buffer_view, !hal.buffer_view, !hal.buffer_view, !hal.buffer_view, !hal.buffer_view, !hal.buffer_view, !hal.buffer_view, !hal.buffer_view, !hal.buffer_view, !hal.buffer_view, !hal.buffer_view, !hal.buffer_view, !hal.buffer_view, !hal.buffer_view, !hal.buffer_view, !hal.buffer_view, !hal.buffer_view, !hal.buffer_view, !hal.buffer_view, !hal.buffer_view, !hal.buffer_view, !hal.buffer_view, !hal.buffer_view, !hal.buffer_view, !hal.buffer_view, !hal.buffer_view, !hal.buffer_view, !hal.buffer_view, !hal.buffer_view, !hal.buffer_view, !hal.buffer_view, !hal.buffer_view, !hal.buffer_view, !hal.buffer_view, !hal.buffer_view, !hal.buffer_view, !hal.buffer_view, !hal.buffer_view, !hal.buffer_view, !hal.buffer_view, !hal.buffer_view, !hal.buffer_view, !hal.buffer_view, !hal.buffer_view, !hal.buffer_view, !hal.buffer_view, !hal.buffer_view, !hal.buffer_view, !hal.buffer_view, !hal.buffer_view, !hal.buffer_view, !hal.buffer_view, !hal.buffer_view, !hal.buffer_view, !hal.buffer_view, !hal.buffer_view, !hal.buffer_view, !hal.buffer_view, !hal.buffer_view, !hal.buffer_view, !hal.buffer_view, !hal.buffer_view, !hal.buffer_view, !hal.buffer_view, !hal.buffer_view, !hal.buffer_view, !hal.buffer_view, !hal.buffer_view, !hal.buffer_view, !hal.buffer_view, !hal.buffer_view, !hal.buffer_view, !hal.buffer_view, !hal.buffer_view, !hal.buffer_view, !hal.buffer_view, !hal.buffer_view, !hal.buffer_view, !hal.buffer_view, !hal.buffer_view, !hal.buffer_view, !hal.buffer_view, !hal.buffer_view, !hal.buffer_view, !hal.buffer_view, !hal.buffer_view, !hal.buffer_view, !hal.buffer_view, !hal.buffer_view, !hal.buffer_view, !hal.buffer_view, !hal.buffer_view, !hal.buffer_view, !hal.buffer_view, !hal.buffer_view, !hal.buffer_view, !hal.buffer_view, !hal.buffer_view, !hal.buffer_view, !hal.buffer_view, !hal.buffer_view, !hal.buffer_view, !hal.buffer_view, !hal.buffer_view, !hal.buffer_view, !hal.buffer_view, !hal.buffer_view, !hal.buffer_view, !hal.buffer_view, !hal.buffer_view, !hal.fence, !hal.fence) -> (!hal.buffer_view, !hal.buffer_view, !hal.buffer_view, !hal.buffer_view, !hal.buffer_view, !hal.buffer_view, !hal.buffer_view, !hal.buffer_view, !hal.buffer_view, !hal.buffer_view, !hal.buffer_view, !hal.buffer_view, !hal.buffer_view, !hal.buffer_view, !hal.buffer_view, !hal.buffer_view, !hal.buffer_view, !hal.buffer_view, !hal.buffer_view, !hal.buffer_view, !hal.buffer_view, !hal.buffer_view, !hal.buffer_view, !hal.buffer_view, !hal.buffer_view, !hal.buffer_view, !hal.buffer_view, !hal.buffer_view, !hal.buffer_view, !hal.buffer_view, !hal.buffer_view, !hal.buffer_view, !hal.buffer_view, !hal.buffer_view, !hal.buffer_view, !hal.buffer_view, !hal.buffer_view, !hal.buffer_view, !hal.buffer_view, !hal.buffer_view, !hal.buffer_view, !hal.buffer_view, !hal.buffer_view, !hal.buffer_view, !hal.buffer_view, !hal.buffer_view, !hal.buffer_view, !hal.buffer_view, !hal.buffer_view, !hal.buffer_view, !hal.buffer_view, !hal.buffer_view, !hal.buffer_view, !hal.buffer_view, !hal.buffer_view, !hal.buffer_view, !hal.buffer_view, !hal.buffer_view, !hal.buffer_view, !hal.buffer_view, !hal.buffer_view, !hal.buffer_view, !hal.buffer_view, !hal.buffer_view, !hal.buffer_view, !hal.buffer_view, !hal.buffer_view, !hal.buffer_view, !hal.buffer_view, !hal.buffer_view, !hal.buffer_view, !hal.buffer_view, !hal.buffer_view, !hal.buffer_view, !hal.buffer_view, !hal.buffer_view, !hal.buffer_view, !hal.buffer_view, !hal.buffer_view, !hal.buffer_view, !hal.buffer_view, !hal.buffer_view, !hal.buffer_view, !hal.buffer_view, !hal.buffer_view, !hal.buffer_view, !hal.buffer_view, !hal.buffer_view, !hal.buffer_view, !hal.buffer_view, !hal.buffer_view, !hal.buffer_view, !hal.buffer_view, !hal.buffer_view, !hal.buffer_view, !hal.buffer_view, !hal.buffer_view, !hal.buffer_view, !hal.buffer_view, !hal.buffer_view, !hal.buffer_view, !hal.buffer_view, !hal.buffer_view, !hal.buffer_view, !hal.buffer_view, !hal.buffer_view, !hal.buffer_view, !hal.buffer_view, !hal.buffer_view, !hal.buffer_view, !hal.buffer_view, !hal.buffer_view, !hal.buffer_view, !hal.buffer_view, !hal.buffer_view, !hal.buffer_view, !hal.buffer_view, !hal.buffer_view, !hal.buffer_view, !hal.buffer_view, !hal.buffer_view, !hal.buffer_view, !hal.buffer_view, !hal.buffer_view, !hal.buffer_view, !hal.buffer_view, !hal.buffer_view, !hal.buffer_view, !hal.buffer_view, !hal.buffer_view, !hal.buffer_view, !hal.buffer_view, !hal.buffer_view, !hal.buffer_view, !hal.buffer_view, !hal.buffer_view, !hal.buffer_view, !hal.buffer_view, !hal.buffer_view, !hal.buffer_view, !hal.buffer_view, !hal.buffer_view, !hal.buffer_view, !hal.buffer_view, !hal.buffer_view, !hal.buffer_view, !hal.buffer_view, !hal.buffer_view, !hal.buffer_view, !hal.buffer_view, !hal.buffer_view, !hal.buffer_view, !hal.buffer_view, !hal.buffer_view, !hal.buffer_view, !hal.buffer_view, !hal.buffer_view, !hal.buffer_view, !hal.buffer_view, !hal.buffer_view, !hal.buffer_view, !hal.buffer_view, !hal.buffer_view, !hal.buffer_view, !hal.buffer_view, !hal.buffer_view, !hal.buffer_view, !hal.buffer_view, !hal.buffer_view, !hal.buffer_view, !hal.buffer_view, !hal.buffer_view, !hal.buffer_view, !hal.buffer_view, !hal.buffer_view, !hal.buffer_view, !hal.buffer_view, !hal.buffer_view, !hal.buffer_view, !hal.buffer_view, !hal.buffer_view, !hal.buffer_view, !hal.buffer_view, !hal.buffer_view, !hal.buffer_view, !hal.buffer_view, !hal.buffer_view, !hal.buffer_view, !hal.buffer_view, !hal.buffer_view, !hal.buffer_view, !hal.buffer_view, !hal.buffer_view, !hal.buffer_view, !hal.buffer_view, !hal.buffer_view, !hal.buffer_view, !hal.buffer_view, !hal.buffer_view, !hal.buffer_view, !hal.buffer_view, !hal.buffer_view, !hal.buffer_view, !hal.buffer_view, !hal.buffer_view, !hal.buffer_view, !hal.buffer_view, !hal.buffer_view, !hal.buffer_view, !hal.buffer_view, !hal.buffer_view, !hal.buffer_view, !hal.buffer_view, !hal.buffer_view, !hal.buffer_view, !hal.buffer_view, !hal.buffer_view, !hal.buffer_view, !hal.buffer_view, !hal.buffer_view, !hal.buffer_view, !hal.buffer_view, !hal.buffer_view, !hal.buffer_view, !hal.buffer_view, !hal.buffer_view, !hal.buffer_view, !hal.buffer_view, !hal.buffer_view, !hal.buffer_view, !hal.buffer_view, !hal.buffer_view, !hal.buffer_view, !hal.buffer_view, !hal.buffer_view, !hal.buffer_view, !hal.buffer_view, !hal.buffer_view, !hal.buffer_view, !hal.buffer_view, !hal.buffer_view, !hal.buffer_view, !hal.buffer_view, !hal.buffer_view, !hal.buffer_view, !hal.buffer_view, !hal.buffer_view, !hal.buffer_view, !hal.buffer_view, !hal.buffer_view, !hal.buffer_view, !hal.buffer_view, !hal.buffer_view, !hal.buffer_view, !hal.buffer_view, !hal.buffer_view, !hal.buffer_view, !hal.buffer_view, !hal.buffer_view, !hal.buffer_view, !hal.buffer_view, !hal.buffer_view, !hal.buffer_view, !hal.buffer_view, !hal.buffer_view, !hal.buffer_view, !hal.buffer_view, !hal.buffer_view, !hal.buffer_view, !hal.buffer_view, !hal.buffer_view, !hal.buffer_view, !hal.buffer_view, !hal.buffer_view, !hal.buffer_view, !hal.buffer_view, !hal.buffer_view, !hal.buffer_view, !hal.buffer_view, !hal.buffer_view, !hal.buffer_view, !hal.buffer_view, !hal.buffer_view, !hal.buffer_view, !hal.buffer_view, !hal.buffer_view, !hal.buffer_view, !hal.buffer_view, !hal.buffer_view, !hal.buffer_view, !hal.buffer_view, !hal.buffer_view, !hal.buffer_view, !hal.buffer_view, !hal.buffer_view, !hal.buffer_view, !hal.buffer_view, !hal.buffer_view, !hal.buffer_view, !hal.buffer_view, !hal.buffer_view, !hal.buffer_view, !hal.buffer_view, !hal.buffer_view, !hal.buffer_view, !hal.buffer_view, !hal.buffer_view, !hal.buffer_view, !hal.buffer_view, !hal.buffer_view, !hal.buffer_view, !hal.buffer_view, !hal.buffer_view, !hal.buffer_view, !hal.buffer_view, !hal.buffer_view, !hal.buffer_view, !hal.buffer_view, !hal.buffer_view, !hal.buffer_view, !hal.buffer_view, !hal.buffer_view, !hal.buffer_view, !hal.buffer_view, !hal.buffer_view, !hal.buffer_view, !hal.buffer_view, !hal.buffer_view, !hal.buffer_view, !hal.buffer_view, !hal.buffer_view, !hal.buffer_view, !hal.buffer_view, !hal.buffer_view, !hal.buffer_view, !hal.buffer_view, !hal.buffer_view, !hal.buffer_view, !hal.buffer_view, !hal.buffer_view, !hal.buffer_view, !hal.buffer_view, !hal.buffer_view, !hal.buffer_view, !hal.buffer_view, !hal.buffer_view, !hal.buffer_view, !hal.buffer_view, !hal.buffer_view, !hal.buffer_view, !hal.buffer_view, !hal.buffer_view, !hal.buffer_view, !hal.buffer_view, !hal.buffer_view, !hal.buffer_view, !hal.buffer_view, !hal.buffer_view, !hal.buffer_view, !hal.buffer_view, !hal.buffer_view, !hal.buffer_view, !hal.buffer_view, !hal.buffer_view, !hal.buffer_view, !hal.buffer_view, !hal.buffer_view, !hal.buffer_view, !hal.buffer_view, !hal.buffer_view, !hal.buffer_view, !hal.buffer_view, !hal.buffer_view, !hal.buffer_view, !hal.buffer_view, !hal.buffer_view, !hal.buffer_view, !hal.buffer_view, !hal.buffer_view, !hal.buffer_view, !hal.buffer_view, !hal.buffer_view, !hal.buffer_view, !hal.buffer_view, !hal.buffer_view, !hal.buffer_view, !hal.buffer_view, !hal.buffer_view, !hal.buffer_view, !hal.buffer_view, !hal.buffer_view, !hal.buffer_view, !hal.buffer_view, !hal.buffer_view, !hal.buffer_view, !hal.buffer_view, !hal.buffer_view, !hal.buffer_view, !hal.buffer_view, !hal.buffer_view, !hal.buffer_view, !hal.buffer_view, !hal.buffer_view, !hal.buffer_view, !hal.buffer_view, !hal.buffer_view, !hal.buffer_view, !hal.buffer_view, !hal.buffer_view, !hal.buffer_view, !hal.buffer_view, !hal.buffer_view, !hal.buffer_view, !hal.buffer_view, !hal.buffer_view, !hal.buffer_view, !hal.buffer_view, !hal.buffer_view, !hal.buffer_view, !hal.buffer_view, !hal.buffer_view, !hal.buffer_view, !hal.buffer_view, !hal.buffer_view, !hal.buffer_view, !hal.buffer_view, !hal.buffer_view, !hal.buffer_view, !hal.buffer_view, !hal.buffer_view, !hal.buffer_view, !hal.buffer_view, !hal.buffer_view, !hal.buffer_view, !hal.buffer_view, !hal.buffer_view, !hal.buffer_view, !hal.buffer_view, !hal.buffer_view, !hal.buffer_view, !hal.buffer_view, !hal.buffer_view, !hal.buffer_view, !hal.buffer_view, !hal.buffer_view, !hal.buffer_view, !hal.buffer_view, !hal.buffer_view, !hal.buffer_view, !hal.buffer_view, !hal.buffer_view, !hal.buffer_view, !hal.buffer_view, !hal.buffer_view)
    %status = hal.fence.await until([%fence]) timeout_millis(%c-1_i32) : i32
    util.return %1#0, %1#1, %1#2, %1#3, %1#4, %1#5, %1#6, %1#7, %1#8, %1#9, %1#10, %1#11, %1#12, %1#13, %1#14, %1#15, %1#16, %1#17, %1#18, %1#19, %1#20, %1#21, %1#22, %1#23, %1#24, %1#25, %1#26, %1#27, %1#28, %1#29, %1#30, %1#31, %1#32, %1#33, %1#34, %1#35, %1#36, %1#37, %1#38, %1#39, %1#40, %1#41, %1#42, %1#43, %1#44, %1#45, %1#46, %1#47, %1#48, %1#49, %1#50, %1#51, %1#52, %1#53, %1#54, %1#55, %1#56, %1#57, %1#58, %1#59, %1#60, %1#61, %1#62, %1#63, %1#64, %1#65, %1#66, %1#67, %1#68, %1#69, %1#70, %1#71, %1#72, %1#73, %1#74, %1#75, %1#76, %1#77, %1#78, %1#79, %1#80, %1#81, %1#82, %1#83, %1#84, %1#85, %1#86, %1#87, %1#88, %1#89, %1#90, %1#91, %1#92, %1#93, %1#94, %1#95, %1#96, %1#97, %1#98, %1#99, %1#100, %1#101, %1#102, %1#103, %1#104, %1#105, %1#106, %1#107, %1#108, %1#109, %1#110, %1#111, %1#112, %1#113, %1#114, %1#115, %1#116, %1#117, %1#118, %1#119, %1#120, %1#121, %1#122, %1#123, %1#124, %1#125, %1#126, %1#127, %1#128, %1#129, %1#130, %1#131, %1#132, %1#133, %1#134, %1#135, %1#136, %1#137, %1#138, %1#139, %1#140, %1#141, %1#142, %1#143, %1#144, %1#145, %1#146, %1#147, %1#148, %1#149, %1#150, %1#151, %1#152, %1#153, %1#154, %1#155, %1#156, %1#157, %1#158, %1#159, %1#160, %1#161, %1#162, %1#163, %1#164, %1#165, %1#166, %1#167, %1#168, %1#169, %1#170, %1#171, %1#172, %1#173, %1#174, %1#175, %1#176, %1#177, %1#178, %1#179, %1#180, %1#181, %1#182, %1#183, %1#184, %1#185, %1#186, %1#187, %1#188, %1#189, %1#190, %1#191, %1#192, %1#193, %1#194, %1#195, %1#196, %1#197, %1#198, %1#199, %1#200, %1#201, %1#202, %1#203, %1#204, %1#205, %1#206, %1#207, %1#208, %1#209, %1#210, %1#211, %1#212, %1#213, %1#214, %1#215, %1#216, %1#217, %1#218, %1#219, %1#220, %1#221, %1#222, %1#223, %1#224, %1#225, %1#226, %1#227, %1#228, %1#229, %1#230, %1#231, %1#232, %1#233, %1#234, %1#235, %1#236, %1#237, %1#238, %1#239, %1#240, %1#241, %1#242, %1#243, %1#244, %1#245, %1#246, %1#247, %1#248, %1#249, %1#250, %1#251, %1#252, %1#253, %1#254, %1#255, %1#256, %1#257, %1#258, %1#259, %1#260, %1#261, %1#262, %1#263, %1#264, %1#265, %1#266, %1#267, %1#268, %1#269, %1#270, %1#271, %1#272, %1#273, %1#274, %1#275, %1#276, %1#277, %1#278, %1#279, %1#280, %1#281, %1#282, %1#283, %1#284, %1#285, %1#286, %1#287, %1#288, %1#289, %1#290, %1#291, %1#292, %1#293, %1#294, %1#295, %1#296, %1#297, %1#298, %1#299, %1#300, %1#301, %1#302, %1#303, %1#304, %1#305, %1#306, %1#307, %1#308, %1#309, %1#310, %1#311, %1#312, %1#313, %1#314, %1#315, %1#316, %1#317, %1#318, %1#319, %1#320, %1#321, %1#322, %1#323, %1#324, %1#325, %1#326, %1#327, %1#328, %1#329, %1#330, %1#331, %1#332, %1#333, %1#334, %1#335, %1#336, %1#337, %1#338, %1#339, %1#340, %1#341, %1#342, %1#343, %1#344, %1#345, %1#346, %1#347, %1#348, %1#349, %1#350, %1#351, %1#352, %1#353, %1#354, %1#355, %1#356, %1#357, %1#358, %1#359, %1#360, %1#361, %1#362, %1#363, %1#364, %1#365, %1#366, %1#367, %1#368, %1#369, %1#370, %1#371, %1#372, %1#373, %1#374, %1#375, %1#376, %1#377, %1#378, %1#379, %1#380, %1#381, %1#382, %1#383, %1#384, %1#385, %1#386, %1#387, %1#388, %1#389, %1#390, %1#391, %1#392, %1#393, %1#394, %1#395, %1#396, %1#397, %1#398, %1#399, %1#400, %1#401, %1#402, %1#403, %1#404, %1#405, %1#406, %1#407, %1#408, %1#409, %1#410, %1#411, %1#412, %1#413, %1#414, %1#415, %1#416, %1#417, %1#418, %1#419, %1#420, %1#421, %1#422, %1#423, %1#424, %1#425, %1#426, %1#427, %1#428, %1#429, %1#430, %1#431, %1#432, %1#433, %1#434, %1#435, %1#436, %1#437, %1#438, %1#439, %1#440, %1#441, %1#442, %1#443, %1#444, %1#445, %1#446, %1#447, %1#448, %1#449, %1#450, %1#451, %1#452, %1#453 : !hal.buffer_view, !hal.buffer_view, !hal.buffer_view, !hal.buffer_view, !hal.buffer_view, !hal.buffer_view, !hal.buffer_view, !hal.buffer_view, !hal.buffer_view, !hal.buffer_view, !hal.buffer_view, !hal.buffer_view, !hal.buffer_view, !hal.buffer_view, !hal.buffer_view, !hal.buffer_view, !hal.buffer_view, !hal.buffer_view, !hal.buffer_view, !hal.buffer_view, !hal.buffer_view, !hal.buffer_view, !hal.buffer_view, !hal.buffer_view, !hal.buffer_view, !hal.buffer_view, !hal.buffer_view, !hal.buffer_view, !hal.buffer_view, !hal.buffer_view, !hal.buffer_view, !hal.buffer_view, !hal.buffer_view, !hal.buffer_view, !hal.buffer_view, !hal.buffer_view, !hal.buffer_view, !hal.buffer_view, !hal.buffer_view, !hal.buffer_view, !hal.buffer_view, !hal.buffer_view, !hal.buffer_view, !hal.buffer_view, !hal.buffer_view, !hal.buffer_view, !hal.buffer_view, !hal.buffer_view, !hal.buffer_view, !hal.buffer_view, !hal.buffer_view, !hal.buffer_view, !hal.buffer_view, !hal.buffer_view, !hal.buffer_view, !hal.buffer_view, !hal.buffer_view, !hal.buffer_view, !hal.buffer_view, !hal.buffer_view, !hal.buffer_view, !hal.buffer_view, !hal.buffer_view, !hal.buffer_view, !hal.buffer_view, !hal.buffer_view, !hal.buffer_view, !hal.buffer_view, !hal.buffer_view, !hal.buffer_view, !hal.buffer_view, !hal.buffer_view, !hal.buffer_view, !hal.buffer_view, !hal.buffer_view, !hal.buffer_view, !hal.buffer_view, !hal.buffer_view, !hal.buffer_view, !hal.buffer_view, !hal.buffer_view, !hal.buffer_view, !hal.buffer_view, !hal.buffer_view, !hal.buffer_view, !hal.buffer_view, !hal.buffer_view, !hal.buffer_view, !hal.buffer_view, !hal.buffer_view, !hal.buffer_view, !hal.buffer_view, !hal.buffer_view, !hal.buffer_view, !hal.buffer_view, !hal.buffer_view, !hal.buffer_view, !hal.buffer_view, !hal.buffer_view, !hal.buffer_view, !hal.buffer_view, !hal.buffer_view, !hal.buffer_view, !hal.buffer_view, !hal.buffer_view, !hal.buffer_view, !hal.buffer_view, !hal.buffer_view, !hal.buffer_view, !hal.buffer_view, !hal.buffer_view, !hal.buffer_view, !hal.buffer_view, !hal.buffer_view, !hal.buffer_view, !hal.buffer_view, !hal.buffer_view, !hal.buffer_view, !hal.buffer_view, !hal.buffer_view, !hal.buffer_view, !hal.buffer_view, !hal.buffer_view, !hal.buffer_view, !hal.buffer_view, !hal.buffer_view, !hal.buffer_view, !hal.buffer_view, !hal.buffer_view, !hal.buffer_view, !hal.buffer_view, !hal.buffer_view, !hal.buffer_view, !hal.buffer_view, !hal.buffer_view, !hal.buffer_view, !hal.buffer_view, !hal.buffer_view, !hal.buffer_view, !hal.buffer_view, !hal.buffer_view, !hal.buffer_view, !hal.buffer_view, !hal.buffer_view, !hal.buffer_view, !hal.buffer_view, !hal.buffer_view, !hal.buffer_view, !hal.buffer_view, !hal.buffer_view, !hal.buffer_view, !hal.buffer_view, !hal.buffer_view, !hal.buffer_view, !hal.buffer_view, !hal.buffer_view, !hal.buffer_view, !hal.buffer_view, !hal.buffer_view, !hal.buffer_view, !hal.buffer_view, !hal.buffer_view, !hal.buffer_view, !hal.buffer_view, !hal.buffer_view, !hal.buffer_view, !hal.buffer_view, !hal.buffer_view, !hal.buffer_view, !hal.buffer_view, !hal.buffer_view, !hal.buffer_view, !hal.buffer_view, !hal.buffer_view, !hal.buffer_view, !hal.buffer_view, !hal.buffer_view, !hal.buffer_view, !hal.buffer_view, !hal.buffer_view, !hal.buffer_view, !hal.buffer_view, !hal.buffer_view, !hal.buffer_view, !hal.buffer_view, !hal.buffer_view, !hal.buffer_view, !hal.buffer_view, !hal.buffer_view, !hal.buffer_view, !hal.buffer_view, !hal.buffer_view, !hal.buffer_view, !hal.buffer_view, !hal.buffer_view, !hal.buffer_view, !hal.buffer_view, !hal.buffer_view, !hal.buffer_view, !hal.buffer_view, !hal.buffer_view, !hal.buffer_view, !hal.buffer_view, !hal.buffer_view, !hal.buffer_view, !hal.buffer_view, !hal.buffer_view, !hal.buffer_view, !hal.buffer_view, !hal.buffer_view, !hal.buffer_view, !hal.buffer_view, !hal.buffer_view, !hal.buffer_view, !hal.buffer_view, !hal.buffer_view, !hal.buffer_view, !hal.buffer_view, !hal.buffer_view, !hal.buffer_view, !hal.buffer_view, !hal.buffer_view, !hal.buffer_view, !hal.buffer_view, !hal.buffer_view, !hal.buffer_view, !hal.buffer_view, !hal.buffer_view, !hal.buffer_view, !hal.buffer_view, !hal.buffer_view, !hal.buffer_view, !hal.buffer_view, !hal.buffer_view, !hal.buffer_view, !hal.buffer_view, !hal.buffer_view, !hal.buffer_view, !hal.buffer_view, !hal.buffer_view, !hal.buffer_view, !hal.buffer_view, !hal.buffer_view, !hal.buffer_view, !hal.buffer_view, !hal.buffer_view, !hal.buffer_view, !hal.buffer_view, !hal.buffer_view, !hal.buffer_view, !hal.buffer_view, !hal.buffer_view, !hal.buffer_view, !hal.buffer_view, !hal.buffer_view, !hal.buffer_view, !hal.buffer_view, !hal.buffer_view, !hal.buffer_view, !hal.buffer_view, !hal.buffer_view, !hal.buffer_view, !hal.buffer_view, !hal.buffer_view, !hal.buffer_view, !hal.buffer_view, !hal.buffer_view, !hal.buffer_view, !hal.buffer_view, !hal.buffer_view, !hal.buffer_view, !hal.buffer_view, !hal.buffer_view, !hal.buffer_view, !hal.buffer_view, !hal.buffer_view, !hal.buffer_view, !hal.buffer_view, !hal.buffer_view, !hal.buffer_view, !hal.buffer_view, !hal.buffer_view, !hal.buffer_view, !hal.buffer_view, !hal.buffer_view, !hal.buffer_view, !hal.buffer_view, !hal.buffer_view, !hal.buffer_view, !hal.buffer_view, !hal.buffer_view, !hal.buffer_view, !hal.buffer_view, !hal.buffer_view, !hal.buffer_view, !hal.buffer_view, !hal.buffer_view, !hal.buffer_view, !hal.buffer_view, !hal.buffer_view, !hal.buffer_view, !hal.buffer_view, !hal.buffer_view, !hal.buffer_view, !hal.buffer_view, !hal.buffer_view, !hal.buffer_view, !hal.buffer_view, !hal.buffer_view, !hal.buffer_view, !hal.buffer_view, !hal.buffer_view, !hal.buffer_view, !hal.buffer_view, !hal.buffer_view, !hal.buffer_view, !hal.buffer_view, !hal.buffer_view, !hal.buffer_view, !hal.buffer_view, !hal.buffer_view, !hal.buffer_view, !hal.buffer_view, !hal.buffer_view, !hal.buffer_view, !hal.buffer_view, !hal.buffer_view, !hal.buffer_view, !hal.buffer_view, !hal.buffer_view, !hal.buffer_view, !hal.buffer_view, !hal.buffer_view, !hal.buffer_view, !hal.buffer_view, !hal.buffer_view, !hal.buffer_view, !hal.buffer_view, !hal.buffer_view, !hal.buffer_view, !hal.buffer_view, !hal.buffer_view, !hal.buffer_view, !hal.buffer_view, !hal.buffer_view, !hal.buffer_view, !hal.buffer_view, !hal.buffer_view, !hal.buffer_view, !hal.buffer_view, !hal.buffer_view, !hal.buffer_view, !hal.buffer_view, !hal.buffer_view, !hal.buffer_view, !hal.buffer_view, !hal.buffer_view, !hal.buffer_view, !hal.buffer_view, !hal.buffer_view, !hal.buffer_view, !hal.buffer_view, !hal.buffer_view, !hal.buffer_view, !hal.buffer_view, !hal.buffer_view, !hal.buffer_view, !hal.buffer_view, !hal.buffer_view, !hal.buffer_view, !hal.buffer_view, !hal.buffer_view, !hal.buffer_view, !hal.buffer_view, !hal.buffer_view, !hal.buffer_view, !hal.buffer_view, !hal.buffer_view, !hal.buffer_view, !hal.buffer_view, !hal.buffer_view, !hal.buffer_view, !hal.buffer_view, !hal.buffer_view, !hal.buffer_view, !hal.buffer_view, !hal.buffer_view, !hal.buffer_view, !hal.buffer_view, !hal.buffer_view, !hal.buffer_view, !hal.buffer_view, !hal.buffer_view, !hal.buffer_view, !hal.buffer_view, !hal.buffer_view, !hal.buffer_view, !hal.buffer_view, !hal.buffer_view, !hal.buffer_view, !hal.buffer_view, !hal.buffer_view, !hal.buffer_view, !hal.buffer_view, !hal.buffer_view, !hal.buffer_view, !hal.buffer_view, !hal.buffer_view, !hal.buffer_view, !hal.buffer_view, !hal.buffer_view, !hal.buffer_view, !hal.buffer_view, !hal.buffer_view, !hal.buffer_view, !hal.buffer_view, !hal.buffer_view, !hal.buffer_view, !hal.buffer_view, !hal.buffer_view, !hal.buffer_view, !hal.buffer_view, !hal.buffer_view, !hal.buffer_view, !hal.buffer_view, !hal.buffer_view, !hal.buffer_view, !hal.buffer_view, !hal.buffer_view, !hal.buffer_view, !hal.buffer_view, !hal.buffer_view, !hal.buffer_view, !hal.buffer_view, !hal.buffer_view, !hal.buffer_view, !hal.buffer_view, !hal.buffer_view, !hal.buffer_view, !hal.buffer_view, !hal.buffer_view, !hal.buffer_view, !hal.buffer_view, !hal.buffer_view, !hal.buffer_view, !hal.buffer_view, !hal.buffer_view, !hal.buffer_view, !hal.buffer_view, !hal.buffer_view, !hal.buffer_view, !hal.buffer_view, !hal.buffer_view, !hal.buffer_view
  }
}
