module {
  func.func @main(%arg0: tensor<1x4xf32> {ml_program.identifier = "inputs"}) -> (tensor<1x2xf32> {ml_program.identifier = "Identity"}) {
    %0 = "tosa.const"() <{value = dense<0.000000e+00> : tensor<2xf32>}> : () -> tensor<2xf32>
    %1 = "tosa.const"() <{value = dense<[[[[… > : tensor<2x1x1x8xf32>}> : () -> tensor<2x1x1x8xf32>
    %2 = "tosa.const"() <{value = dense<0.000000e+00> : tensor<8xf32>}> : () -> tensor<8xf32>
    %3 = "tosa.const"() <{value = dense<[[[[… > : tensor<8x1x1x4xf32>}> : () -> tensor<8x1x1x4xf32>
    %4 = tosa.reshape %arg0 {new_shape = array<i64: 1, 1, 1, 4>} : (tensor<1x4xf32>) -> tensor<1x1x1x4xf32>
    %5 = tosa.conv2d %4, %3, %2 {dilation = array<i64: 1, 1>, pad = array<i64: 0, 0, 0, 0>, stride = array<i64: 1, 1>} : (tensor<1x1x1x4xf32>, tensor<8x1x1x4xf32>, tensor<8xf32>) -> tensor<1x1x1x8xf32>
    %6 = tosa.reshape %5 {new_shape = array<i64: 1, 8>} : (tensor<1x1x1x8xf32>) -> tensor<1x8xf32>
    %7 = tosa.clamp %6 {max_fp = 3.40282347E+38 : f32, max_int = 2147483647 : i64, min_fp = 0.000000e+00 : f32, min_int = 0 : i64} : (tensor<1x8xf32>) -> tensor<1x8xf32>
    %8 = tosa.reshape %7 {new_shape = array<i64: 1, 1, 1, 8>} : (tensor<1x8xf32>) -> tensor<1x1x1x8xf32>
    %9 = tosa.conv2d %8, %1, %0 {dilation = array<i64: 1, 1>, pad = array<i64: 0, 0, 0, 0>, stride = array<i64: 1, 1>} : (tensor<1x1x1x8xf32>, tensor<2x1x1x8xf32>, tensor<2xf32>) -> tensor<1x1x1x2xf32>
    %10 = tosa.reshape %9 {new_shape = array<i64: 1, 2>} : (tensor<1x1x1x2xf32>) -> tensor<1x2xf32>
    return %10 : tensor<1x2xf32>
  }
}

